saved_model_schema_version: 1
meta_graphs {
  meta_info_def {
    stripped_op_list {
      op {
        name: "Add"
        input_arg {
          name: "x"
          type_attr: "T"
        }
        input_arg {
          name: "y"
          type_attr: "T"
        }
        output_arg {
          name: "z"
          type_attr: "T"
        }
        attr {
          name: "T"
          type: "type"
          allowed_values {
            list {
              type: DT_BFLOAT16
              type: DT_HALF
              type: DT_FLOAT
              type: DT_DOUBLE
              type: DT_UINT8
              type: DT_INT8
              type: DT_INT16
              type: DT_INT32
              type: DT_INT64
              type: DT_COMPLEX64
              type: DT_COMPLEX128
              type: DT_STRING
            }
          }
        }
      }
      op {
        name: "AddN"
        input_arg {
          name: "inputs"
          type_attr: "T"
          number_attr: "N"
        }
        output_arg {
          name: "sum"
          type_attr: "T"
        }
        attr {
          name: "N"
          type: "int"
          has_minimum: true
          minimum: 1
        }
        attr {
          name: "T"
          type: "type"
          allowed_values {
            list {
              type: DT_FLOAT
              type: DT_DOUBLE
              type: DT_INT32
              type: DT_UINT8
              type: DT_INT16
              type: DT_INT8
              type: DT_COMPLEX64
              type: DT_INT64
              type: DT_QINT8
              type: DT_QUINT8
              type: DT_QINT32
              type: DT_BFLOAT16
              type: DT_UINT16
              type: DT_COMPLEX128
              type: DT_HALF
              type: DT_UINT32
              type: DT_UINT64
              type: DT_VARIANT
            }
          }
        }
        is_aggregate: true
        is_commutative: true
      }
      op {
        name: "AddV2"
        input_arg {
          name: "x"
          type_attr: "T"
        }
        input_arg {
          name: "y"
          type_attr: "T"
        }
        output_arg {
          name: "z"
          type_attr: "T"
        }
        attr {
          name: "T"
          type: "type"
          allowed_values {
            list {
              type: DT_BFLOAT16
              type: DT_HALF
              type: DT_FLOAT
              type: DT_DOUBLE
              type: DT_UINT8
              type: DT_INT8
              type: DT_INT16
              type: DT_INT32
              type: DT_INT64
              type: DT_COMPLEX64
              type: DT_COMPLEX128
            }
          }
        }
        is_aggregate: true
        is_commutative: true
      }
      op {
        name: "ArgMax"
        input_arg {
          name: "input"
          type_attr: "T"
        }
        input_arg {
          name: "dimension"
          type_attr: "Tidx"
        }
        output_arg {
          name: "output"
          type_attr: "output_type"
        }
        attr {
          name: "T"
          type: "type"
          allowed_values {
            list {
              type: DT_FLOAT
              type: DT_DOUBLE
              type: DT_INT32
              type: DT_UINT8
              type: DT_INT16
              type: DT_INT8
              type: DT_COMPLEX64
              type: DT_INT64
              type: DT_QINT8
              type: DT_QUINT8
              type: DT_QINT32
              type: DT_BFLOAT16
              type: DT_UINT16
              type: DT_COMPLEX128
              type: DT_HALF
              type: DT_UINT32
              type: DT_UINT64
            }
          }
        }
        attr {
          name: "Tidx"
          type: "type"
          default_value {
            type: DT_INT32
          }
          allowed_values {
            list {
              type: DT_INT32
              type: DT_INT64
            }
          }
        }
        attr {
          name: "output_type"
          type: "type"
          default_value {
            type: DT_INT64
          }
          allowed_values {
            list {
              type: DT_INT32
              type: DT_INT64
            }
          }
        }
      }
      op {
        name: "AssignAddVariableOp"
        input_arg {
          name: "resource"
          type: DT_RESOURCE
        }
        input_arg {
          name: "value"
          type_attr: "dtype"
        }
        attr {
          name: "dtype"
          type: "type"
        }
        is_stateful: true
      }
      op {
        name: "AssignVariableOp"
        input_arg {
          name: "resource"
          type: DT_RESOURCE
        }
        input_arg {
          name: "value"
          type_attr: "dtype"
        }
        attr {
          name: "dtype"
          type: "type"
        }
        is_stateful: true
      }
      op {
        name: "BiasAdd"
        input_arg {
          name: "value"
          type_attr: "T"
        }
        input_arg {
          name: "bias"
          type_attr: "T"
        }
        output_arg {
          name: "output"
          type_attr: "T"
        }
        attr {
          name: "T"
          type: "type"
          allowed_values {
            list {
              type: DT_FLOAT
              type: DT_DOUBLE
              type: DT_INT32
              type: DT_UINT8
              type: DT_INT16
              type: DT_INT8
              type: DT_COMPLEX64
              type: DT_INT64
              type: DT_QINT8
              type: DT_QUINT8
              type: DT_QINT32
              type: DT_BFLOAT16
              type: DT_UINT16
              type: DT_COMPLEX128
              type: DT_HALF
              type: DT_UINT32
              type: DT_UINT64
            }
          }
        }
        attr {
          name: "data_format"
          type: "string"
          default_value {
            s: "NHWC"
          }
          allowed_values {
            list {
              s: "NHWC"
              s: "NCHW"
            }
          }
        }
      }
      op {
        name: "BiasAddGrad"
        input_arg {
          name: "out_backprop"
          type_attr: "T"
        }
        output_arg {
          name: "output"
          type_attr: "T"
        }
        attr {
          name: "T"
          type: "type"
          allowed_values {
            list {
              type: DT_FLOAT
              type: DT_DOUBLE
              type: DT_INT32
              type: DT_UINT8
              type: DT_INT16
              type: DT_INT8
              type: DT_COMPLEX64
              type: DT_INT64
              type: DT_QINT8
              type: DT_QUINT8
              type: DT_QINT32
              type: DT_BFLOAT16
              type: DT_UINT16
              type: DT_COMPLEX128
              type: DT_HALF
              type: DT_UINT32
              type: DT_UINT64
            }
          }
        }
        attr {
          name: "data_format"
          type: "string"
          default_value {
            s: "NHWC"
          }
          allowed_values {
            list {
              s: "NHWC"
              s: "NCHW"
            }
          }
        }
      }
      op {
        name: "BroadcastGradientArgs"
        input_arg {
          name: "s0"
          type_attr: "T"
        }
        input_arg {
          name: "s1"
          type_attr: "T"
        }
        output_arg {
          name: "r0"
          type_attr: "T"
        }
        output_arg {
          name: "r1"
          type_attr: "T"
        }
        attr {
          name: "T"
          type: "type"
          default_value {
            type: DT_INT32
          }
          allowed_values {
            list {
              type: DT_INT32
              type: DT_INT64
            }
          }
        }
      }
      op {
        name: "Cast"
        input_arg {
          name: "x"
          type_attr: "SrcT"
        }
        output_arg {
          name: "y"
          type_attr: "DstT"
        }
        attr {
          name: "SrcT"
          type: "type"
        }
        attr {
          name: "DstT"
          type: "type"
        }
        attr {
          name: "Truncate"
          type: "bool"
          default_value {
            b: false
          }
        }
      }
      op {
        name: "ConcatOffset"
        input_arg {
          name: "concat_dim"
          type: DT_INT32
        }
        input_arg {
          name: "shape"
          type: DT_INT32
          number_attr: "N"
        }
        output_arg {
          name: "offset"
          type: DT_INT32
          number_attr: "N"
        }
        attr {
          name: "N"
          type: "int"
          has_minimum: true
          minimum: 2
        }
      }
      op {
        name: "ConcatV2"
        input_arg {
          name: "values"
          type_attr: "T"
          number_attr: "N"
        }
        input_arg {
          name: "axis"
          type_attr: "Tidx"
        }
        output_arg {
          name: "output"
          type_attr: "T"
        }
        attr {
          name: "N"
          type: "int"
          has_minimum: true
          minimum: 2
        }
        attr {
          name: "T"
          type: "type"
        }
        attr {
          name: "Tidx"
          type: "type"
          default_value {
            type: DT_INT32
          }
          allowed_values {
            list {
              type: DT_INT32
              type: DT_INT64
            }
          }
        }
      }
      op {
        name: "Const"
        output_arg {
          name: "output"
          type_attr: "dtype"
        }
        attr {
          name: "value"
          type: "tensor"
        }
        attr {
          name: "dtype"
          type: "type"
        }
      }
      op {
        name: "Conv2D"
        input_arg {
          name: "input"
          type_attr: "T"
        }
        input_arg {
          name: "filter"
          type_attr: "T"
        }
        output_arg {
          name: "output"
          type_attr: "T"
        }
        attr {
          name: "T"
          type: "type"
          allowed_values {
            list {
              type: DT_HALF
              type: DT_BFLOAT16
              type: DT_FLOAT
              type: DT_DOUBLE
            }
          }
        }
        attr {
          name: "strides"
          type: "list(int)"
        }
        attr {
          name: "use_cudnn_on_gpu"
          type: "bool"
          default_value {
            b: true
          }
        }
        attr {
          name: "padding"
          type: "string"
          allowed_values {
            list {
              s: "SAME"
              s: "VALID"
              s: "EXPLICIT"
            }
          }
        }
        attr {
          name: "explicit_paddings"
          type: "list(int)"
          default_value {
            list {
            }
          }
        }
        attr {
          name: "data_format"
          type: "string"
          default_value {
            s: "NHWC"
          }
          allowed_values {
            list {
              s: "NHWC"
              s: "NCHW"
            }
          }
        }
        attr {
          name: "dilations"
          type: "list(int)"
          default_value {
            list {
              i: 1
              i: 1
              i: 1
              i: 1
            }
          }
        }
      }
      op {
        name: "Conv2DBackpropFilter"
        input_arg {
          name: "input"
          type_attr: "T"
        }
        input_arg {
          name: "filter_sizes"
          type: DT_INT32
        }
        input_arg {
          name: "out_backprop"
          type_attr: "T"
        }
        output_arg {
          name: "output"
          type_attr: "T"
        }
        attr {
          name: "T"
          type: "type"
          allowed_values {
            list {
              type: DT_HALF
              type: DT_BFLOAT16
              type: DT_FLOAT
              type: DT_DOUBLE
            }
          }
        }
        attr {
          name: "strides"
          type: "list(int)"
        }
        attr {
          name: "use_cudnn_on_gpu"
          type: "bool"
          default_value {
            b: true
          }
        }
        attr {
          name: "padding"
          type: "string"
          allowed_values {
            list {
              s: "SAME"
              s: "VALID"
              s: "EXPLICIT"
            }
          }
        }
        attr {
          name: "explicit_paddings"
          type: "list(int)"
          default_value {
            list {
            }
          }
        }
        attr {
          name: "data_format"
          type: "string"
          default_value {
            s: "NHWC"
          }
          allowed_values {
            list {
              s: "NHWC"
              s: "NCHW"
            }
          }
        }
        attr {
          name: "dilations"
          type: "list(int)"
          default_value {
            list {
              i: 1
              i: 1
              i: 1
              i: 1
            }
          }
        }
      }
      op {
        name: "Conv2DBackpropInput"
        input_arg {
          name: "input_sizes"
          type: DT_INT32
        }
        input_arg {
          name: "filter"
          type_attr: "T"
        }
        input_arg {
          name: "out_backprop"
          type_attr: "T"
        }
        output_arg {
          name: "output"
          type_attr: "T"
        }
        attr {
          name: "T"
          type: "type"
          allowed_values {
            list {
              type: DT_HALF
              type: DT_BFLOAT16
              type: DT_FLOAT
              type: DT_DOUBLE
            }
          }
        }
        attr {
          name: "strides"
          type: "list(int)"
        }
        attr {
          name: "use_cudnn_on_gpu"
          type: "bool"
          default_value {
            b: true
          }
        }
        attr {
          name: "padding"
          type: "string"
          allowed_values {
            list {
              s: "SAME"
              s: "VALID"
              s: "EXPLICIT"
            }
          }
        }
        attr {
          name: "explicit_paddings"
          type: "list(int)"
          default_value {
            list {
            }
          }
        }
        attr {
          name: "data_format"
          type: "string"
          default_value {
            s: "NHWC"
          }
          allowed_values {
            list {
              s: "NHWC"
              s: "NCHW"
            }
          }
        }
        attr {
          name: "dilations"
          type: "list(int)"
          default_value {
            list {
              i: 1
              i: 1
              i: 1
              i: 1
            }
          }
        }
      }
      op {
        name: "DynamicStitch"
        input_arg {
          name: "indices"
          type: DT_INT32
          number_attr: "N"
        }
        input_arg {
          name: "data"
          type_attr: "T"
          number_attr: "N"
        }
        output_arg {
          name: "merged"
          type_attr: "T"
        }
        attr {
          name: "N"
          type: "int"
          has_minimum: true
          minimum: 1
        }
        attr {
          name: "T"
          type: "type"
        }
      }
      op {
        name: "Equal"
        input_arg {
          name: "x"
          type_attr: "T"
        }
        input_arg {
          name: "y"
          type_attr: "T"
        }
        output_arg {
          name: "z"
          type: DT_BOOL
        }
        attr {
          name: "T"
          type: "type"
          allowed_values {
            list {
              type: DT_BFLOAT16
              type: DT_HALF
              type: DT_FLOAT
              type: DT_DOUBLE
              type: DT_UINT8
              type: DT_INT8
              type: DT_INT16
              type: DT_INT32
              type: DT_INT64
              type: DT_COMPLEX64
              type: DT_QUINT8
              type: DT_QINT8
              type: DT_QINT32
              type: DT_STRING
              type: DT_BOOL
              type: DT_COMPLEX128
            }
          }
        }
        attr {
          name: "incompatible_shape_error"
          type: "bool"
          default_value {
            b: true
          }
        }
        is_commutative: true
      }
      op {
        name: "ExpandDims"
        input_arg {
          name: "input"
          type_attr: "T"
        }
        input_arg {
          name: "dim"
          type_attr: "Tdim"
        }
        output_arg {
          name: "output"
          type_attr: "T"
        }
        attr {
          name: "T"
          type: "type"
        }
        attr {
          name: "Tdim"
          type: "type"
          default_value {
            type: DT_INT32
          }
          allowed_values {
            list {
              type: DT_INT32
              type: DT_INT64
            }
          }
        }
      }
      op {
        name: "Fill"
        input_arg {
          name: "dims"
          type_attr: "index_type"
        }
        input_arg {
          name: "value"
          type_attr: "T"
        }
        output_arg {
          name: "output"
          type_attr: "T"
        }
        attr {
          name: "T"
          type: "type"
        }
        attr {
          name: "index_type"
          type: "type"
          default_value {
            type: DT_INT32
          }
          allowed_values {
            list {
              type: DT_INT32
              type: DT_INT64
            }
          }
        }
      }
      op {
        name: "FloorDiv"
        input_arg {
          name: "x"
          type_attr: "T"
        }
        input_arg {
          name: "y"
          type_attr: "T"
        }
        output_arg {
          name: "z"
          type_attr: "T"
        }
        attr {
          name: "T"
          type: "type"
          allowed_values {
            list {
              type: DT_BFLOAT16
              type: DT_HALF
              type: DT_FLOAT
              type: DT_DOUBLE
              type: DT_UINT8
              type: DT_INT8
              type: DT_UINT16
              type: DT_INT16
              type: DT_INT32
              type: DT_INT64
              type: DT_COMPLEX64
              type: DT_COMPLEX128
            }
          }
        }
      }
      op {
        name: "FloorMod"
        input_arg {
          name: "x"
          type_attr: "T"
        }
        input_arg {
          name: "y"
          type_attr: "T"
        }
        output_arg {
          name: "z"
          type_attr: "T"
        }
        attr {
          name: "T"
          type: "type"
          allowed_values {
            list {
              type: DT_INT32
              type: DT_INT64
              type: DT_BFLOAT16
              type: DT_HALF
              type: DT_FLOAT
              type: DT_DOUBLE
            }
          }
        }
      }
      op {
        name: "Greater"
        input_arg {
          name: "x"
          type_attr: "T"
        }
        input_arg {
          name: "y"
          type_attr: "T"
        }
        output_arg {
          name: "z"
          type: DT_BOOL
        }
        attr {
          name: "T"
          type: "type"
          allowed_values {
            list {
              type: DT_FLOAT
              type: DT_DOUBLE
              type: DT_INT32
              type: DT_UINT8
              type: DT_INT16
              type: DT_INT8
              type: DT_INT64
              type: DT_BFLOAT16
              type: DT_UINT16
              type: DT_HALF
              type: DT_UINT32
              type: DT_UINT64
            }
          }
        }
      }
      op {
        name: "GreaterEqual"
        input_arg {
          name: "x"
          type_attr: "T"
        }
        input_arg {
          name: "y"
          type_attr: "T"
        }
        output_arg {
          name: "z"
          type: DT_BOOL
        }
        attr {
          name: "T"
          type: "type"
          allowed_values {
            list {
              type: DT_FLOAT
              type: DT_DOUBLE
              type: DT_INT32
              type: DT_UINT8
              type: DT_INT16
              type: DT_INT8
              type: DT_INT64
              type: DT_BFLOAT16
              type: DT_UINT16
              type: DT_HALF
              type: DT_UINT32
              type: DT_UINT64
            }
          }
        }
      }
      op {
        name: "Identity"
        input_arg {
          name: "input"
          type_attr: "T"
        }
        output_arg {
          name: "output"
          type_attr: "T"
        }
        attr {
          name: "T"
          type: "type"
        }
      }
      op {
        name: "LessEqual"
        input_arg {
          name: "x"
          type_attr: "T"
        }
        input_arg {
          name: "y"
          type_attr: "T"
        }
        output_arg {
          name: "z"
          type: DT_BOOL
        }
        attr {
          name: "T"
          type: "type"
          allowed_values {
            list {
              type: DT_FLOAT
              type: DT_DOUBLE
              type: DT_INT32
              type: DT_UINT8
              type: DT_INT16
              type: DT_INT8
              type: DT_INT64
              type: DT_BFLOAT16
              type: DT_UINT16
              type: DT_HALF
              type: DT_UINT32
              type: DT_UINT64
            }
          }
        }
      }
      op {
        name: "Log"
        input_arg {
          name: "x"
          type_attr: "T"
        }
        output_arg {
          name: "y"
          type_attr: "T"
        }
        attr {
          name: "T"
          type: "type"
          allowed_values {
            list {
              type: DT_BFLOAT16
              type: DT_HALF
              type: DT_FLOAT
              type: DT_DOUBLE
              type: DT_COMPLEX64
              type: DT_COMPLEX128
            }
          }
        }
      }
      op {
        name: "MatMul"
        input_arg {
          name: "a"
          type_attr: "T"
        }
        input_arg {
          name: "b"
          type_attr: "T"
        }
        output_arg {
          name: "product"
          type_attr: "T"
        }
        attr {
          name: "transpose_a"
          type: "bool"
          default_value {
            b: false
          }
        }
        attr {
          name: "transpose_b"
          type: "bool"
          default_value {
            b: false
          }
        }
        attr {
          name: "T"
          type: "type"
          allowed_values {
            list {
              type: DT_BFLOAT16
              type: DT_HALF
              type: DT_FLOAT
              type: DT_DOUBLE
              type: DT_INT32
              type: DT_INT64
              type: DT_COMPLEX64
              type: DT_COMPLEX128
            }
          }
        }
      }
      op {
        name: "Max"
        input_arg {
          name: "input"
          type_attr: "T"
        }
        input_arg {
          name: "reduction_indices"
          type_attr: "Tidx"
        }
        output_arg {
          name: "output"
          type_attr: "T"
        }
        attr {
          name: "keep_dims"
          type: "bool"
          default_value {
            b: false
          }
        }
        attr {
          name: "T"
          type: "type"
          allowed_values {
            list {
              type: DT_FLOAT
              type: DT_DOUBLE
              type: DT_INT32
              type: DT_UINT8
              type: DT_INT16
              type: DT_INT8
              type: DT_COMPLEX64
              type: DT_INT64
              type: DT_QINT8
              type: DT_QUINT8
              type: DT_QINT32
              type: DT_BFLOAT16
              type: DT_UINT16
              type: DT_COMPLEX128
              type: DT_HALF
              type: DT_UINT32
              type: DT_UINT64
            }
          }
        }
        attr {
          name: "Tidx"
          type: "type"
          default_value {
            type: DT_INT32
          }
          allowed_values {
            list {
              type: DT_INT32
              type: DT_INT64
            }
          }
        }
      }
      op {
        name: "Maximum"
        input_arg {
          name: "x"
          type_attr: "T"
        }
        input_arg {
          name: "y"
          type_attr: "T"
        }
        output_arg {
          name: "z"
          type_attr: "T"
        }
        attr {
          name: "T"
          type: "type"
          allowed_values {
            list {
              type: DT_BFLOAT16
              type: DT_HALF
              type: DT_FLOAT
              type: DT_DOUBLE
              type: DT_INT32
              type: DT_INT64
            }
          }
        }
      }
      op {
        name: "Mean"
        input_arg {
          name: "input"
          type_attr: "T"
        }
        input_arg {
          name: "reduction_indices"
          type_attr: "Tidx"
        }
        output_arg {
          name: "output"
          type_attr: "T"
        }
        attr {
          name: "keep_dims"
          type: "bool"
          default_value {
            b: false
          }
        }
        attr {
          name: "T"
          type: "type"
          allowed_values {
            list {
              type: DT_FLOAT
              type: DT_DOUBLE
              type: DT_INT32
              type: DT_UINT8
              type: DT_INT16
              type: DT_INT8
              type: DT_COMPLEX64
              type: DT_INT64
              type: DT_QINT8
              type: DT_QUINT8
              type: DT_QINT32
              type: DT_BFLOAT16
              type: DT_UINT16
              type: DT_COMPLEX128
              type: DT_HALF
              type: DT_UINT32
              type: DT_UINT64
            }
          }
        }
        attr {
          name: "Tidx"
          type: "type"
          default_value {
            type: DT_INT32
          }
          allowed_values {
            list {
              type: DT_INT32
              type: DT_INT64
            }
          }
        }
      }
      op {
        name: "MergeV2Checkpoints"
        input_arg {
          name: "checkpoint_prefixes"
          type: DT_STRING
        }
        input_arg {
          name: "destination_prefix"
          type: DT_STRING
        }
        attr {
          name: "delete_old_dirs"
          type: "bool"
          default_value {
            b: true
          }
        }
        is_stateful: true
      }
      op {
        name: "Minimum"
        input_arg {
          name: "x"
          type_attr: "T"
        }
        input_arg {
          name: "y"
          type_attr: "T"
        }
        output_arg {
          name: "z"
          type_attr: "T"
        }
        attr {
          name: "T"
          type: "type"
          allowed_values {
            list {
              type: DT_BFLOAT16
              type: DT_HALF
              type: DT_FLOAT
              type: DT_DOUBLE
              type: DT_INT32
              type: DT_INT64
            }
          }
        }
      }
      op {
        name: "Mul"
        input_arg {
          name: "x"
          type_attr: "T"
        }
        input_arg {
          name: "y"
          type_attr: "T"
        }
        output_arg {
          name: "z"
          type_attr: "T"
        }
        attr {
          name: "T"
          type: "type"
          allowed_values {
            list {
              type: DT_BFLOAT16
              type: DT_HALF
              type: DT_FLOAT
              type: DT_DOUBLE
              type: DT_UINT8
              type: DT_INT8
              type: DT_UINT16
              type: DT_INT16
              type: DT_INT32
              type: DT_INT64
              type: DT_COMPLEX64
              type: DT_COMPLEX128
            }
          }
        }
        is_commutative: true
      }
      op {
        name: "Neg"
        input_arg {
          name: "x"
          type_attr: "T"
        }
        output_arg {
          name: "y"
          type_attr: "T"
        }
        attr {
          name: "T"
          type: "type"
          allowed_values {
            list {
              type: DT_BFLOAT16
              type: DT_HALF
              type: DT_FLOAT
              type: DT_DOUBLE
              type: DT_INT32
              type: DT_INT64
              type: DT_COMPLEX64
              type: DT_COMPLEX128
            }
          }
        }
      }
      op {
        name: "NoOp"
      }
      op {
        name: "Pack"
        input_arg {
          name: "values"
          type_attr: "T"
          number_attr: "N"
        }
        output_arg {
          name: "output"
          type_attr: "T"
        }
        attr {
          name: "N"
          type: "int"
          has_minimum: true
          minimum: 1
        }
        attr {
          name: "T"
          type: "type"
        }
        attr {
          name: "axis"
          type: "int"
          default_value {
            i: 0
          }
        }
      }
      op {
        name: "Placeholder"
        output_arg {
          name: "output"
          type_attr: "dtype"
        }
        attr {
          name: "dtype"
          type: "type"
        }
        attr {
          name: "shape"
          type: "shape"
          default_value {
            shape {
              unknown_rank: true
            }
          }
        }
      }
      op {
        name: "PlaceholderWithDefault"
        input_arg {
          name: "input"
          type_attr: "dtype"
        }
        output_arg {
          name: "output"
          type_attr: "dtype"
        }
        attr {
          name: "dtype"
          type: "type"
        }
        attr {
          name: "shape"
          type: "shape"
        }
      }
      op {
        name: "Pow"
        input_arg {
          name: "x"
          type_attr: "T"
        }
        input_arg {
          name: "y"
          type_attr: "T"
        }
        output_arg {
          name: "z"
          type_attr: "T"
        }
        attr {
          name: "T"
          type: "type"
          allowed_values {
            list {
              type: DT_BFLOAT16
              type: DT_FLOAT
              type: DT_HALF
              type: DT_DOUBLE
              type: DT_INT32
              type: DT_INT64
              type: DT_COMPLEX64
              type: DT_COMPLEX128
            }
          }
        }
      }
      op {
        name: "Prod"
        input_arg {
          name: "input"
          type_attr: "T"
        }
        input_arg {
          name: "reduction_indices"
          type_attr: "Tidx"
        }
        output_arg {
          name: "output"
          type_attr: "T"
        }
        attr {
          name: "keep_dims"
          type: "bool"
          default_value {
            b: false
          }
        }
        attr {
          name: "T"
          type: "type"
          allowed_values {
            list {
              type: DT_FLOAT
              type: DT_DOUBLE
              type: DT_INT32
              type: DT_UINT8
              type: DT_INT16
              type: DT_INT8
              type: DT_COMPLEX64
              type: DT_INT64
              type: DT_QINT8
              type: DT_QUINT8
              type: DT_QINT32
              type: DT_BFLOAT16
              type: DT_UINT16
              type: DT_COMPLEX128
              type: DT_HALF
              type: DT_UINT32
              type: DT_UINT64
            }
          }
        }
        attr {
          name: "Tidx"
          type: "type"
          default_value {
            type: DT_INT32
          }
          allowed_values {
            list {
              type: DT_INT32
              type: DT_INT64
            }
          }
        }
      }
      op {
        name: "RandomUniform"
        input_arg {
          name: "shape"
          type_attr: "T"
        }
        output_arg {
          name: "output"
          type_attr: "dtype"
        }
        attr {
          name: "seed"
          type: "int"
          default_value {
            i: 0
          }
        }
        attr {
          name: "seed2"
          type: "int"
          default_value {
            i: 0
          }
        }
        attr {
          name: "dtype"
          type: "type"
          allowed_values {
            list {
              type: DT_HALF
              type: DT_BFLOAT16
              type: DT_FLOAT
              type: DT_DOUBLE
            }
          }
        }
        attr {
          name: "T"
          type: "type"
          allowed_values {
            list {
              type: DT_INT32
              type: DT_INT64
            }
          }
        }
        is_stateful: true
      }
      op {
        name: "Range"
        input_arg {
          name: "start"
          type_attr: "Tidx"
        }
        input_arg {
          name: "limit"
          type_attr: "Tidx"
        }
        input_arg {
          name: "delta"
          type_attr: "Tidx"
        }
        output_arg {
          name: "output"
          type_attr: "Tidx"
        }
        attr {
          name: "Tidx"
          type: "type"
          default_value {
            type: DT_INT32
          }
          allowed_values {
            list {
              type: DT_BFLOAT16
              type: DT_FLOAT
              type: DT_DOUBLE
              type: DT_INT32
              type: DT_INT64
            }
          }
        }
      }
      op {
        name: "ReadVariableOp"
        input_arg {
          name: "resource"
          type: DT_RESOURCE
        }
        output_arg {
          name: "value"
          type_attr: "dtype"
        }
        attr {
          name: "dtype"
          type: "type"
        }
        is_stateful: true
      }
      op {
        name: "RealDiv"
        input_arg {
          name: "x"
          type_attr: "T"
        }
        input_arg {
          name: "y"
          type_attr: "T"
        }
        output_arg {
          name: "z"
          type_attr: "T"
        }
        attr {
          name: "T"
          type: "type"
          allowed_values {
            list {
              type: DT_BFLOAT16
              type: DT_HALF
              type: DT_FLOAT
              type: DT_DOUBLE
              type: DT_UINT8
              type: DT_INT8
              type: DT_UINT16
              type: DT_INT16
              type: DT_INT32
              type: DT_INT64
              type: DT_COMPLEX64
              type: DT_COMPLEX128
            }
          }
        }
      }
      op {
        name: "Reciprocal"
        input_arg {
          name: "x"
          type_attr: "T"
        }
        output_arg {
          name: "y"
          type_attr: "T"
        }
        attr {
          name: "T"
          type: "type"
          allowed_values {
            list {
              type: DT_BFLOAT16
              type: DT_HALF
              type: DT_FLOAT
              type: DT_DOUBLE
              type: DT_INT32
              type: DT_INT64
              type: DT_COMPLEX64
              type: DT_COMPLEX128
            }
          }
        }
      }
      op {
        name: "Relu"
        input_arg {
          name: "features"
          type_attr: "T"
        }
        output_arg {
          name: "activations"
          type_attr: "T"
        }
        attr {
          name: "T"
          type: "type"
          allowed_values {
            list {
              type: DT_FLOAT
              type: DT_DOUBLE
              type: DT_INT32
              type: DT_UINT8
              type: DT_INT16
              type: DT_INT8
              type: DT_INT64
              type: DT_BFLOAT16
              type: DT_UINT16
              type: DT_HALF
              type: DT_UINT32
              type: DT_UINT64
              type: DT_QINT8
            }
          }
        }
      }
      op {
        name: "ReluGrad"
        input_arg {
          name: "gradients"
          type_attr: "T"
        }
        input_arg {
          name: "features"
          type_attr: "T"
        }
        output_arg {
          name: "backprops"
          type_attr: "T"
        }
        attr {
          name: "T"
          type: "type"
          allowed_values {
            list {
              type: DT_FLOAT
              type: DT_DOUBLE
              type: DT_INT32
              type: DT_UINT8
              type: DT_INT16
              type: DT_INT8
              type: DT_INT64
              type: DT_BFLOAT16
              type: DT_UINT16
              type: DT_HALF
              type: DT_UINT32
              type: DT_UINT64
            }
          }
        }
      }
      op {
        name: "Reshape"
        input_arg {
          name: "tensor"
          type_attr: "T"
        }
        input_arg {
          name: "shape"
          type_attr: "Tshape"
        }
        output_arg {
          name: "output"
          type_attr: "T"
        }
        attr {
          name: "T"
          type: "type"
        }
        attr {
          name: "Tshape"
          type: "type"
          default_value {
            type: DT_INT32
          }
          allowed_values {
            list {
              type: DT_INT32
              type: DT_INT64
            }
          }
        }
      }
      op {
        name: "ResourceGather"
        input_arg {
          name: "resource"
          type: DT_RESOURCE
        }
        input_arg {
          name: "indices"
          type_attr: "Tindices"
        }
        output_arg {
          name: "output"
          type_attr: "dtype"
        }
        attr {
          name: "batch_dims"
          type: "int"
          default_value {
            i: 0
          }
        }
        attr {
          name: "validate_indices"
          type: "bool"
          default_value {
            b: true
          }
        }
        attr {
          name: "dtype"
          type: "type"
        }
        attr {
          name: "Tindices"
          type: "type"
          allowed_values {
            list {
              type: DT_INT32
              type: DT_INT64
            }
          }
        }
        is_stateful: true
      }
      op {
        name: "RestoreV2"
        input_arg {
          name: "prefix"
          type: DT_STRING
        }
        input_arg {
          name: "tensor_names"
          type: DT_STRING
        }
        input_arg {
          name: "shape_and_slices"
          type: DT_STRING
        }
        output_arg {
          name: "tensors"
          type_list_attr: "dtypes"
        }
        attr {
          name: "dtypes"
          type: "list(type)"
          has_minimum: true
          minimum: 1
        }
        is_stateful: true
      }
      op {
        name: "SaveV2"
        input_arg {
          name: "prefix"
          type: DT_STRING
        }
        input_arg {
          name: "tensor_names"
          type: DT_STRING
        }
        input_arg {
          name: "shape_and_slices"
          type: DT_STRING
        }
        input_arg {
          name: "tensors"
          type_list_attr: "dtypes"
        }
        attr {
          name: "dtypes"
          type: "list(type)"
          has_minimum: true
          minimum: 1
        }
        is_stateful: true
      }
      op {
        name: "Select"
        input_arg {
          name: "condition"
          type: DT_BOOL
        }
        input_arg {
          name: "t"
          type_attr: "T"
        }
        input_arg {
          name: "e"
          type_attr: "T"
        }
        output_arg {
          name: "output"
          type_attr: "T"
        }
        attr {
          name: "T"
          type: "type"
        }
      }
      op {
        name: "Shape"
        input_arg {
          name: "input"
          type_attr: "T"
        }
        output_arg {
          name: "output"
          type_attr: "out_type"
        }
        attr {
          name: "T"
          type: "type"
        }
        attr {
          name: "out_type"
          type: "type"
          default_value {
            type: DT_INT32
          }
          allowed_values {
            list {
              type: DT_INT32
              type: DT_INT64
            }
          }
        }
      }
      op {
        name: "ShapeN"
        input_arg {
          name: "input"
          type_attr: "T"
          number_attr: "N"
        }
        output_arg {
          name: "output"
          type_attr: "out_type"
          number_attr: "N"
        }
        attr {
          name: "N"
          type: "int"
          has_minimum: true
          minimum: 1
        }
        attr {
          name: "T"
          type: "type"
        }
        attr {
          name: "out_type"
          type: "type"
          default_value {
            type: DT_INT32
          }
          allowed_values {
            list {
              type: DT_INT32
              type: DT_INT64
            }
          }
        }
      }
      op {
        name: "ShardedFilename"
        input_arg {
          name: "basename"
          type: DT_STRING
        }
        input_arg {
          name: "shard"
          type: DT_INT32
        }
        input_arg {
          name: "num_shards"
          type: DT_INT32
        }
        output_arg {
          name: "filename"
          type: DT_STRING
        }
      }
      op {
        name: "Sigmoid"
        input_arg {
          name: "x"
          type_attr: "T"
        }
        output_arg {
          name: "y"
          type_attr: "T"
        }
        attr {
          name: "T"
          type: "type"
          allowed_values {
            list {
              type: DT_BFLOAT16
              type: DT_HALF
              type: DT_FLOAT
              type: DT_DOUBLE
              type: DT_COMPLEX64
              type: DT_COMPLEX128
            }
          }
        }
      }
      op {
        name: "SigmoidGrad"
        input_arg {
          name: "y"
          type_attr: "T"
        }
        input_arg {
          name: "dy"
          type_attr: "T"
        }
        output_arg {
          name: "z"
          type_attr: "T"
        }
        attr {
          name: "T"
          type: "type"
          allowed_values {
            list {
              type: DT_BFLOAT16
              type: DT_HALF
              type: DT_FLOAT
              type: DT_DOUBLE
              type: DT_COMPLEX64
              type: DT_COMPLEX128
            }
          }
        }
      }
      op {
        name: "Size"
        input_arg {
          name: "input"
          type_attr: "T"
        }
        output_arg {
          name: "output"
          type_attr: "out_type"
        }
        attr {
          name: "T"
          type: "type"
        }
        attr {
          name: "out_type"
          type: "type"
          default_value {
            type: DT_INT32
          }
          allowed_values {
            list {
              type: DT_INT32
              type: DT_INT64
            }
          }
        }
      }
      op {
        name: "Slice"
        input_arg {
          name: "input"
          type_attr: "T"
        }
        input_arg {
          name: "begin"
          type_attr: "Index"
        }
        input_arg {
          name: "size"
          type_attr: "Index"
        }
        output_arg {
          name: "output"
          type_attr: "T"
        }
        attr {
          name: "T"
          type: "type"
        }
        attr {
          name: "Index"
          type: "type"
          allowed_values {
            list {
              type: DT_INT32
              type: DT_INT64
            }
          }
        }
      }
      op {
        name: "Sqrt"
        input_arg {
          name: "x"
          type_attr: "T"
        }
        output_arg {
          name: "y"
          type_attr: "T"
        }
        attr {
          name: "T"
          type: "type"
          allowed_values {
            list {
              type: DT_BFLOAT16
              type: DT_HALF
              type: DT_FLOAT
              type: DT_DOUBLE
              type: DT_COMPLEX64
              type: DT_COMPLEX128
            }
          }
        }
      }
      op {
        name: "Square"
        input_arg {
          name: "x"
          type_attr: "T"
        }
        output_arg {
          name: "y"
          type_attr: "T"
        }
        attr {
          name: "T"
          type: "type"
          allowed_values {
            list {
              type: DT_BFLOAT16
              type: DT_HALF
              type: DT_FLOAT
              type: DT_DOUBLE
              type: DT_INT32
              type: DT_INT64
              type: DT_COMPLEX64
              type: DT_COMPLEX128
            }
          }
        }
      }
      op {
        name: "Squeeze"
        input_arg {
          name: "input"
          type_attr: "T"
        }
        output_arg {
          name: "output"
          type_attr: "T"
        }
        attr {
          name: "T"
          type: "type"
        }
        attr {
          name: "squeeze_dims"
          type: "list(int)"
          default_value {
            list {
            }
          }
          has_minimum: true
        }
      }
      op {
        name: "StridedSlice"
        input_arg {
          name: "input"
          type_attr: "T"
        }
        input_arg {
          name: "begin"
          type_attr: "Index"
        }
        input_arg {
          name: "end"
          type_attr: "Index"
        }
        input_arg {
          name: "strides"
          type_attr: "Index"
        }
        output_arg {
          name: "output"
          type_attr: "T"
        }
        attr {
          name: "T"
          type: "type"
        }
        attr {
          name: "Index"
          type: "type"
          allowed_values {
            list {
              type: DT_INT32
              type: DT_INT64
            }
          }
        }
        attr {
          name: "begin_mask"
          type: "int"
          default_value {
            i: 0
          }
        }
        attr {
          name: "end_mask"
          type: "int"
          default_value {
            i: 0
          }
        }
        attr {
          name: "ellipsis_mask"
          type: "int"
          default_value {
            i: 0
          }
        }
        attr {
          name: "new_axis_mask"
          type: "int"
          default_value {
            i: 0
          }
        }
        attr {
          name: "shrink_axis_mask"
          type: "int"
          default_value {
            i: 0
          }
        }
      }
      op {
        name: "StringJoin"
        input_arg {
          name: "inputs"
          type: DT_STRING
          number_attr: "N"
        }
        output_arg {
          name: "output"
          type: DT_STRING
        }
        attr {
          name: "N"
          type: "int"
          has_minimum: true
          minimum: 1
        }
        attr {
          name: "separator"
          type: "string"
          default_value {
            s: ""
          }
        }
      }
      op {
        name: "Sub"
        input_arg {
          name: "x"
          type_attr: "T"
        }
        input_arg {
          name: "y"
          type_attr: "T"
        }
        output_arg {
          name: "z"
          type_attr: "T"
        }
        attr {
          name: "T"
          type: "type"
          allowed_values {
            list {
              type: DT_BFLOAT16
              type: DT_HALF
              type: DT_FLOAT
              type: DT_DOUBLE
              type: DT_UINT8
              type: DT_INT8
              type: DT_UINT16
              type: DT_INT16
              type: DT_INT32
              type: DT_INT64
              type: DT_COMPLEX64
              type: DT_COMPLEX128
            }
          }
        }
      }
      op {
        name: "Sum"
        input_arg {
          name: "input"
          type_attr: "T"
        }
        input_arg {
          name: "reduction_indices"
          type_attr: "Tidx"
        }
        output_arg {
          name: "output"
          type_attr: "T"
        }
        attr {
          name: "keep_dims"
          type: "bool"
          default_value {
            b: false
          }
        }
        attr {
          name: "T"
          type: "type"
          allowed_values {
            list {
              type: DT_FLOAT
              type: DT_DOUBLE
              type: DT_INT32
              type: DT_UINT8
              type: DT_INT16
              type: DT_INT8
              type: DT_COMPLEX64
              type: DT_INT64
              type: DT_QINT8
              type: DT_QUINT8
              type: DT_QINT32
              type: DT_BFLOAT16
              type: DT_UINT16
              type: DT_COMPLEX128
              type: DT_HALF
              type: DT_UINT32
              type: DT_UINT64
            }
          }
        }
        attr {
          name: "Tidx"
          type: "type"
          default_value {
            type: DT_INT32
          }
          allowed_values {
            list {
              type: DT_INT32
              type: DT_INT64
            }
          }
        }
      }
      op {
        name: "Tile"
        input_arg {
          name: "input"
          type_attr: "T"
        }
        input_arg {
          name: "multiples"
          type_attr: "Tmultiples"
        }
        output_arg {
          name: "output"
          type_attr: "T"
        }
        attr {
          name: "T"
          type: "type"
        }
        attr {
          name: "Tmultiples"
          type: "type"
          default_value {
            type: DT_INT32
          }
          allowed_values {
            list {
              type: DT_INT32
              type: DT_INT64
            }
          }
        }
      }
      op {
        name: "UnsortedSegmentSum"
        input_arg {
          name: "data"
          type_attr: "T"
        }
        input_arg {
          name: "segment_ids"
          type_attr: "Tindices"
        }
        input_arg {
          name: "num_segments"
          type_attr: "Tnumsegments"
        }
        output_arg {
          name: "output"
          type_attr: "T"
        }
        attr {
          name: "T"
          type: "type"
          allowed_values {
            list {
              type: DT_FLOAT
              type: DT_DOUBLE
              type: DT_INT32
              type: DT_UINT8
              type: DT_INT16
              type: DT_INT8
              type: DT_COMPLEX64
              type: DT_INT64
              type: DT_QINT8
              type: DT_QUINT8
              type: DT_QINT32
              type: DT_BFLOAT16
              type: DT_UINT16
              type: DT_COMPLEX128
              type: DT_HALF
              type: DT_UINT32
              type: DT_UINT64
            }
          }
        }
        attr {
          name: "Tindices"
          type: "type"
          allowed_values {
            list {
              type: DT_INT32
              type: DT_INT64
            }
          }
        }
        attr {
          name: "Tnumsegments"
          type: "type"
          default_value {
            type: DT_INT32
          }
          allowed_values {
            list {
              type: DT_INT32
              type: DT_INT64
            }
          }
        }
      }
      op {
        name: "VarHandleOp"
        output_arg {
          name: "resource"
          type: DT_RESOURCE
        }
        attr {
          name: "container"
          type: "string"
          default_value {
            s: ""
          }
        }
        attr {
          name: "shared_name"
          type: "string"
          default_value {
            s: ""
          }
        }
        attr {
          name: "dtype"
          type: "type"
        }
        attr {
          name: "shape"
          type: "shape"
        }
        is_stateful: true
      }
      op {
        name: "VarIsInitializedOp"
        input_arg {
          name: "resource"
          type: DT_RESOURCE
        }
        output_arg {
          name: "is_initialized"
          type: DT_BOOL
        }
        is_stateful: true
      }
      op {
        name: "ZerosLike"
        input_arg {
          name: "x"
          type_attr: "T"
        }
        output_arg {
          name: "y"
          type_attr: "T"
        }
        attr {
          name: "T"
          type: "type"
        }
      }
    }
    tags: "serve"
    tensorflow_version: "1.15.0"
    tensorflow_git_version: "v1.15.0-rc3-22-g590d6ee"
  }
  graph_def {
    node {
      name: "input_1"
      op: "Placeholder"
      attr {
        key: "_output_shapes"
        value {
          list {
            shape {
              dim {
                size: -1
              }
              dim {
                size: 120
              }
            }
          }
        }
      }
      attr {
        key: "dtype"
        value {
          type: DT_FLOAT
        }
      }
      attr {
        key: "shape"
        value {
          shape {
            dim {
              size: -1
            }
            dim {
              size: 120
            }
          }
        }
      }
    }
    node {
      name: "embedding_1/random_uniform/shape"
      op: "Const"
      attr {
        key: "_output_shapes"
        value {
          list {
            shape {
              dim {
                size: 2
              }
            }
          }
        }
      }
      attr {
        key: "dtype"
        value {
          type: DT_INT32
        }
      }
      attr {
        key: "value"
        value {
          tensor {
            dtype: DT_INT32
            tensor_shape {
              dim {
                size: 2
              }
            }
            tensor_content: "\202Y\000\000\200\000\000\000"
          }
        }
      }
    }
    node {
      name: "embedding_1/random_uniform/min"
      op: "Const"
      attr {
        key: "_output_shapes"
        value {
          list {
            shape {
            }
          }
        }
      }
      attr {
        key: "dtype"
        value {
          type: DT_FLOAT
        }
      }
      attr {
        key: "value"
        value {
          tensor {
            dtype: DT_FLOAT
            tensor_shape {
            }
            float_val: -0.05000000074505806
          }
        }
      }
    }
    node {
      name: "embedding_1/random_uniform/max"
      op: "Const"
      attr {
        key: "_output_shapes"
        value {
          list {
            shape {
            }
          }
        }
      }
      attr {
        key: "dtype"
        value {
          type: DT_FLOAT
        }
      }
      attr {
        key: "value"
        value {
          tensor {
            dtype: DT_FLOAT
            tensor_shape {
            }
            float_val: 0.05000000074505806
          }
        }
      }
    }
    node {
      name: "embedding_1/random_uniform/RandomUniform"
      op: "RandomUniform"
      input: "embedding_1/random_uniform/shape"
      attr {
        key: "T"
        value {
          type: DT_INT32
        }
      }
      attr {
        key: "_output_shapes"
        value {
          list {
            shape {
              dim {
                size: 22914
              }
              dim {
                size: 128
              }
            }
          }
        }
      }
      attr {
        key: "dtype"
        value {
          type: DT_FLOAT
        }
      }
      attr {
        key: "seed"
        value {
          i: 87654321
        }
      }
      attr {
        key: "seed2"
        value {
          i: 2105981
        }
      }
    }
    node {
      name: "embedding_1/random_uniform/sub"
      op: "Sub"
      input: "embedding_1/random_uniform/max"
      input: "embedding_1/random_uniform/min"
      attr {
        key: "T"
        value {
          type: DT_FLOAT
        }
      }
      attr {
        key: "_output_shapes"
        value {
          list {
            shape {
            }
          }
        }
      }
    }
    node {
      name: "embedding_1/random_uniform/mul"
      op: "Mul"
      input: "embedding_1/random_uniform/RandomUniform"
      input: "embedding_1/random_uniform/sub"
      attr {
        key: "T"
        value {
          type: DT_FLOAT
        }
      }
      attr {
        key: "_output_shapes"
        value {
          list {
            shape {
              dim {
                size: 22914
              }
              dim {
                size: 128
              }
            }
          }
        }
      }
    }
    node {
      name: "embedding_1/random_uniform"
      op: "Add"
      input: "embedding_1/random_uniform/mul"
      input: "embedding_1/random_uniform/min"
      attr {
        key: "T"
        value {
          type: DT_FLOAT
        }
      }
      attr {
        key: "_output_shapes"
        value {
          list {
            shape {
              dim {
                size: 22914
              }
              dim {
                size: 128
              }
            }
          }
        }
      }
    }
    node {
      name: "embedding_1/embeddings"
      op: "VarHandleOp"
      attr {
        key: "_class"
        value {
          list {
            s: "loc:@embedding_1/embeddings"
          }
        }
      }
      attr {
        key: "_output_shapes"
        value {
          list {
            shape {
            }
          }
        }
      }
      attr {
        key: "container"
        value {
          s: ""
        }
      }
      attr {
        key: "dtype"
        value {
          type: DT_FLOAT
        }
      }
      attr {
        key: "shape"
        value {
          shape {
            dim {
              size: 22914
            }
            dim {
              size: 128
            }
          }
        }
      }
      attr {
        key: "shared_name"
        value {
          s: "embedding_1/embeddings"
        }
      }
    }
    node {
      name: "embedding_1/embeddings/IsInitialized/VarIsInitializedOp"
      op: "VarIsInitializedOp"
      input: "embedding_1/embeddings"
      attr {
        key: "_output_shapes"
        value {
          list {
            shape {
            }
          }
        }
      }
    }
    node {
      name: "embedding_1/embeddings/Assign"
      op: "AssignVariableOp"
      input: "embedding_1/embeddings"
      input: "embedding_1/random_uniform"
      attr {
        key: "dtype"
        value {
          type: DT_FLOAT
        }
      }
    }
    node {
      name: "embedding_1/embeddings/Read/ReadVariableOp"
      op: "ReadVariableOp"
      input: "embedding_1/embeddings"
      attr {
        key: "_output_shapes"
        value {
          list {
            shape {
              dim {
                size: 22914
              }
              dim {
                size: 128
              }
            }
          }
        }
      }
      attr {
        key: "dtype"
        value {
          type: DT_FLOAT
        }
      }
    }
    node {
      name: "embedding_1/Cast"
      op: "Cast"
      input: "input_1"
      attr {
        key: "DstT"
        value {
          type: DT_INT32
        }
      }
      attr {
        key: "SrcT"
        value {
          type: DT_FLOAT
        }
      }
      attr {
        key: "Truncate"
        value {
          b: false
        }
      }
      attr {
        key: "_output_shapes"
        value {
          list {
            shape {
              dim {
                size: -1
              }
              dim {
                size: 120
              }
            }
          }
        }
      }
    }
    node {
      name: "embedding_1/embedding_lookup"
      op: "ResourceGather"
      input: "embedding_1/embeddings"
      input: "embedding_1/Cast"
      attr {
        key: "Tindices"
        value {
          type: DT_INT32
        }
      }
      attr {
        key: "_class"
        value {
          list {
            s: "loc:@embedding_1/embeddings"
          }
        }
      }
      attr {
        key: "_output_shapes"
        value {
          list {
            shape {
              dim {
                size: -1
              }
              dim {
                size: 120
              }
              dim {
                size: 128
              }
            }
          }
        }
      }
      attr {
        key: "batch_dims"
        value {
          i: 0
        }
      }
      attr {
        key: "dtype"
        value {
          type: DT_FLOAT
        }
      }
      attr {
        key: "validate_indices"
        value {
          b: true
        }
      }
    }
    node {
      name: "embedding_1/embedding_lookup/Identity"
      op: "Identity"
      input: "embedding_1/embedding_lookup"
      attr {
        key: "T"
        value {
          type: DT_FLOAT
        }
      }
      attr {
        key: "_class"
        value {
          list {
            s: "loc:@embedding_1/embeddings"
          }
        }
      }
      attr {
        key: "_output_shapes"
        value {
          list {
            shape {
              dim {
                size: -1
              }
              dim {
                size: 120
              }
              dim {
                size: 128
              }
            }
          }
        }
      }
    }
    node {
      name: "embedding_1/embedding_lookup/Identity_1"
      op: "Identity"
      input: "embedding_1/embedding_lookup/Identity"
      attr {
        key: "T"
        value {
          type: DT_FLOAT
        }
      }
      attr {
        key: "_output_shapes"
        value {
          list {
            shape {
              dim {
                size: -1
              }
              dim {
                size: 120
              }
              dim {
                size: 128
              }
            }
          }
        }
      }
    }
    node {
      name: "conv1d_1/random_uniform/shape"
      op: "Const"
      attr {
        key: "_output_shapes"
        value {
          list {
            shape {
              dim {
                size: 3
              }
            }
          }
        }
      }
      attr {
        key: "dtype"
        value {
          type: DT_INT32
        }
      }
      attr {
        key: "value"
        value {
          tensor {
            dtype: DT_INT32
            tensor_shape {
              dim {
                size: 3
              }
            }
            tensor_content: "\003\000\000\000\200\000\000\000@\000\000\000"
          }
        }
      }
    }
    node {
      name: "conv1d_1/random_uniform/min"
      op: "Const"
      attr {
        key: "_output_shapes"
        value {
          list {
            shape {
            }
          }
        }
      }
      attr {
        key: "dtype"
        value {
          type: DT_FLOAT
        }
      }
      attr {
        key: "value"
        value {
          tensor {
            dtype: DT_FLOAT
            tensor_shape {
            }
            float_val: -0.10206207633018494
          }
        }
      }
    }
    node {
      name: "conv1d_1/random_uniform/max"
      op: "Const"
      attr {
        key: "_output_shapes"
        value {
          list {
            shape {
            }
          }
        }
      }
      attr {
        key: "dtype"
        value {
          type: DT_FLOAT
        }
      }
      attr {
        key: "value"
        value {
          tensor {
            dtype: DT_FLOAT
            tensor_shape {
            }
            float_val: 0.10206207633018494
          }
        }
      }
    }
    node {
      name: "conv1d_1/random_uniform/RandomUniform"
      op: "RandomUniform"
      input: "conv1d_1/random_uniform/shape"
      attr {
        key: "T"
        value {
          type: DT_INT32
        }
      }
      attr {
        key: "_output_shapes"
        value {
          list {
            shape {
              dim {
                size: 3
              }
              dim {
                size: 128
              }
              dim {
                size: 64
              }
            }
          }
        }
      }
      attr {
        key: "dtype"
        value {
          type: DT_FLOAT
        }
      }
      attr {
        key: "seed"
        value {
          i: 87654321
        }
      }
      attr {
        key: "seed2"
        value {
          i: 4596181
        }
      }
    }
    node {
      name: "conv1d_1/random_uniform/sub"
      op: "Sub"
      input: "conv1d_1/random_uniform/max"
      input: "conv1d_1/random_uniform/min"
      attr {
        key: "T"
        value {
          type: DT_FLOAT
        }
      }
      attr {
        key: "_output_shapes"
        value {
          list {
            shape {
            }
          }
        }
      }
    }
    node {
      name: "conv1d_1/random_uniform/mul"
      op: "Mul"
      input: "conv1d_1/random_uniform/RandomUniform"
      input: "conv1d_1/random_uniform/sub"
      attr {
        key: "T"
        value {
          type: DT_FLOAT
        }
      }
      attr {
        key: "_output_shapes"
        value {
          list {
            shape {
              dim {
                size: 3
              }
              dim {
                size: 128
              }
              dim {
                size: 64
              }
            }
          }
        }
      }
    }
    node {
      name: "conv1d_1/random_uniform"
      op: "Add"
      input: "conv1d_1/random_uniform/mul"
      input: "conv1d_1/random_uniform/min"
      attr {
        key: "T"
        value {
          type: DT_FLOAT
        }
      }
      attr {
        key: "_output_shapes"
        value {
          list {
            shape {
              dim {
                size: 3
              }
              dim {
                size: 128
              }
              dim {
                size: 64
              }
            }
          }
        }
      }
    }
    node {
      name: "conv1d_1/kernel"
      op: "VarHandleOp"
      attr {
        key: "_class"
        value {
          list {
            s: "loc:@conv1d_1/kernel"
          }
        }
      }
      attr {
        key: "_output_shapes"
        value {
          list {
            shape {
            }
          }
        }
      }
      attr {
        key: "container"
        value {
          s: ""
        }
      }
      attr {
        key: "dtype"
        value {
          type: DT_FLOAT
        }
      }
      attr {
        key: "shape"
        value {
          shape {
            dim {
              size: 3
            }
            dim {
              size: 128
            }
            dim {
              size: 64
            }
          }
        }
      }
      attr {
        key: "shared_name"
        value {
          s: "conv1d_1/kernel"
        }
      }
    }
    node {
      name: "conv1d_1/kernel/IsInitialized/VarIsInitializedOp"
      op: "VarIsInitializedOp"
      input: "conv1d_1/kernel"
      attr {
        key: "_output_shapes"
        value {
          list {
            shape {
            }
          }
        }
      }
    }
    node {
      name: "conv1d_1/kernel/Assign"
      op: "AssignVariableOp"
      input: "conv1d_1/kernel"
      input: "conv1d_1/random_uniform"
      attr {
        key: "dtype"
        value {
          type: DT_FLOAT
        }
      }
    }
    node {
      name: "conv1d_1/kernel/Read/ReadVariableOp"
      op: "ReadVariableOp"
      input: "conv1d_1/kernel"
      attr {
        key: "_output_shapes"
        value {
          list {
            shape {
              dim {
                size: 3
              }
              dim {
                size: 128
              }
              dim {
                size: 64
              }
            }
          }
        }
      }
      attr {
        key: "dtype"
        value {
          type: DT_FLOAT
        }
      }
    }
    node {
      name: "conv1d_1/Const"
      op: "Const"
      attr {
        key: "_output_shapes"
        value {
          list {
            shape {
              dim {
                size: 64
              }
            }
          }
        }
      }
      attr {
        key: "dtype"
        value {
          type: DT_FLOAT
        }
      }
      attr {
        key: "value"
        value {
          tensor {
            dtype: DT_FLOAT
            tensor_shape {
              dim {
                size: 64
              }
            }
            float_val: 0.0
          }
        }
      }
    }
    node {
      name: "conv1d_1/bias"
      op: "VarHandleOp"
      attr {
        key: "_class"
        value {
          list {
            s: "loc:@conv1d_1/bias"
          }
        }
      }
      attr {
        key: "_output_shapes"
        value {
          list {
            shape {
            }
          }
        }
      }
      attr {
        key: "container"
        value {
          s: ""
        }
      }
      attr {
        key: "dtype"
        value {
          type: DT_FLOAT
        }
      }
      attr {
        key: "shape"
        value {
          shape {
            dim {
              size: 64
            }
          }
        }
      }
      attr {
        key: "shared_name"
        value {
          s: "conv1d_1/bias"
        }
      }
    }
    node {
      name: "conv1d_1/bias/IsInitialized/VarIsInitializedOp"
      op: "VarIsInitializedOp"
      input: "conv1d_1/bias"
      attr {
        key: "_output_shapes"
        value {
          list {
            shape {
            }
          }
        }
      }
    }
    node {
      name: "conv1d_1/bias/Assign"
      op: "AssignVariableOp"
      input: "conv1d_1/bias"
      input: "conv1d_1/Const"
      attr {
        key: "dtype"
        value {
          type: DT_FLOAT
        }
      }
    }
    node {
      name: "conv1d_1/bias/Read/ReadVariableOp"
      op: "ReadVariableOp"
      input: "conv1d_1/bias"
      attr {
        key: "_output_shapes"
        value {
          list {
            shape {
              dim {
                size: 64
              }
            }
          }
        }
      }
      attr {
        key: "dtype"
        value {
          type: DT_FLOAT
        }
      }
    }
    node {
      name: "conv1d_1/convolution/ExpandDims/dim"
      op: "Const"
      attr {
        key: "_output_shapes"
        value {
          list {
            shape {
            }
          }
        }
      }
      attr {
        key: "dtype"
        value {
          type: DT_INT32
        }
      }
      attr {
        key: "value"
        value {
          tensor {
            dtype: DT_INT32
            tensor_shape {
            }
            int_val: 1
          }
        }
      }
    }
    node {
      name: "conv1d_1/convolution/ExpandDims"
      op: "ExpandDims"
      input: "embedding_1/embedding_lookup/Identity_1"
      input: "conv1d_1/convolution/ExpandDims/dim"
      attr {
        key: "T"
        value {
          type: DT_FLOAT
        }
      }
      attr {
        key: "Tdim"
        value {
          type: DT_INT32
        }
      }
      attr {
        key: "_output_shapes"
        value {
          list {
            shape {
              dim {
                size: -1
              }
              dim {
                size: 1
              }
              dim {
                size: 120
              }
              dim {
                size: 128
              }
            }
          }
        }
      }
    }
    node {
      name: "conv1d_1/convolution/ExpandDims_1/ReadVariableOp"
      op: "ReadVariableOp"
      input: "conv1d_1/kernel"
      attr {
        key: "_output_shapes"
        value {
          list {
            shape {
              dim {
                size: 3
              }
              dim {
                size: 128
              }
              dim {
                size: 64
              }
            }
          }
        }
      }
      attr {
        key: "dtype"
        value {
          type: DT_FLOAT
        }
      }
    }
    node {
      name: "conv1d_1/convolution/ExpandDims_1/dim"
      op: "Const"
      attr {
        key: "_output_shapes"
        value {
          list {
            shape {
            }
          }
        }
      }
      attr {
        key: "dtype"
        value {
          type: DT_INT32
        }
      }
      attr {
        key: "value"
        value {
          tensor {
            dtype: DT_INT32
            tensor_shape {
            }
            int_val: 0
          }
        }
      }
    }
    node {
      name: "conv1d_1/convolution/ExpandDims_1"
      op: "ExpandDims"
      input: "conv1d_1/convolution/ExpandDims_1/ReadVariableOp"
      input: "conv1d_1/convolution/ExpandDims_1/dim"
      attr {
        key: "T"
        value {
          type: DT_FLOAT
        }
      }
      attr {
        key: "Tdim"
        value {
          type: DT_INT32
        }
      }
      attr {
        key: "_output_shapes"
        value {
          list {
            shape {
              dim {
                size: 1
              }
              dim {
                size: 3
              }
              dim {
                size: 128
              }
              dim {
                size: 64
              }
            }
          }
        }
      }
    }
    node {
      name: "conv1d_1/convolution"
      op: "Conv2D"
      input: "conv1d_1/convolution/ExpandDims"
      input: "conv1d_1/convolution/ExpandDims_1"
      attr {
        key: "T"
        value {
          type: DT_FLOAT
        }
      }
      attr {
        key: "_output_shapes"
        value {
          list {
            shape {
              dim {
                size: -1
              }
              dim {
                size: 1
              }
              dim {
                size: 118
              }
              dim {
                size: 64
              }
            }
          }
        }
      }
      attr {
        key: "data_format"
        value {
          s: "NHWC"
        }
      }
      attr {
        key: "dilations"
        value {
          list {
            i: 1
            i: 1
            i: 1
            i: 1
          }
        }
      }
      attr {
        key: "explicit_paddings"
        value {
          list {
          }
        }
      }
      attr {
        key: "padding"
        value {
          s: "VALID"
        }
      }
      attr {
        key: "strides"
        value {
          list {
            i: 1
            i: 1
            i: 1
            i: 1
          }
        }
      }
      attr {
        key: "use_cudnn_on_gpu"
        value {
          b: true
        }
      }
    }
    node {
      name: "conv1d_1/convolution/Squeeze"
      op: "Squeeze"
      input: "conv1d_1/convolution"
      attr {
        key: "T"
        value {
          type: DT_FLOAT
        }
      }
      attr {
        key: "_output_shapes"
        value {
          list {
            shape {
              dim {
                size: -1
              }
              dim {
                size: 118
              }
              dim {
                size: 64
              }
            }
          }
        }
      }
      attr {
        key: "squeeze_dims"
        value {
          list {
            i: 1
          }
        }
      }
    }
    node {
      name: "conv1d_1/Reshape/ReadVariableOp"
      op: "ReadVariableOp"
      input: "conv1d_1/bias"
      attr {
        key: "_output_shapes"
        value {
          list {
            shape {
              dim {
                size: 64
              }
            }
          }
        }
      }
      attr {
        key: "dtype"
        value {
          type: DT_FLOAT
        }
      }
    }
    node {
      name: "conv1d_1/Reshape/shape"
      op: "Const"
      attr {
        key: "_output_shapes"
        value {
          list {
            shape {
              dim {
                size: 3
              }
            }
          }
        }
      }
      attr {
        key: "dtype"
        value {
          type: DT_INT32
        }
      }
      attr {
        key: "value"
        value {
          tensor {
            dtype: DT_INT32
            tensor_shape {
              dim {
                size: 3
              }
            }
            tensor_content: "\001\000\000\000\001\000\000\000@\000\000\000"
          }
        }
      }
    }
    node {
      name: "conv1d_1/Reshape"
      op: "Reshape"
      input: "conv1d_1/Reshape/ReadVariableOp"
      input: "conv1d_1/Reshape/shape"
      attr {
        key: "T"
        value {
          type: DT_FLOAT
        }
      }
      attr {
        key: "Tshape"
        value {
          type: DT_INT32
        }
      }
      attr {
        key: "_output_shapes"
        value {
          list {
            shape {
              dim {
                size: 1
              }
              dim {
                size: 1
              }
              dim {
                size: 64
              }
            }
          }
        }
      }
    }
    node {
      name: "conv1d_1/add"
      op: "AddV2"
      input: "conv1d_1/convolution/Squeeze"
      input: "conv1d_1/Reshape"
      attr {
        key: "T"
        value {
          type: DT_FLOAT
        }
      }
      attr {
        key: "_output_shapes"
        value {
          list {
            shape {
              dim {
                size: -1
              }
              dim {
                size: 118
              }
              dim {
                size: 64
              }
            }
          }
        }
      }
    }
    node {
      name: "conv1d_1/Relu"
      op: "Relu"
      input: "conv1d_1/add"
      attr {
        key: "T"
        value {
          type: DT_FLOAT
        }
      }
      attr {
        key: "_output_shapes"
        value {
          list {
            shape {
              dim {
                size: -1
              }
              dim {
                size: 118
              }
              dim {
                size: 64
              }
            }
          }
        }
      }
    }
    node {
      name: "global_max_pooling1d_1/Max/reduction_indices"
      op: "Const"
      attr {
        key: "_output_shapes"
        value {
          list {
            shape {
            }
          }
        }
      }
      attr {
        key: "dtype"
        value {
          type: DT_INT32
        }
      }
      attr {
        key: "value"
        value {
          tensor {
            dtype: DT_INT32
            tensor_shape {
            }
            int_val: 1
          }
        }
      }
    }
    node {
      name: "global_max_pooling1d_1/Max"
      op: "Max"
      input: "conv1d_1/Relu"
      input: "global_max_pooling1d_1/Max/reduction_indices"
      attr {
        key: "T"
        value {
          type: DT_FLOAT
        }
      }
      attr {
        key: "Tidx"
        value {
          type: DT_INT32
        }
      }
      attr {
        key: "_output_shapes"
        value {
          list {
            shape {
              dim {
                size: -1
              }
              dim {
                size: 64
              }
            }
          }
        }
      }
      attr {
        key: "keep_dims"
        value {
          b: false
        }
      }
    }
    node {
      name: "conv1d_2/random_uniform/shape"
      op: "Const"
      attr {
        key: "_output_shapes"
        value {
          list {
            shape {
              dim {
                size: 3
              }
            }
          }
        }
      }
      attr {
        key: "dtype"
        value {
          type: DT_INT32
        }
      }
      attr {
        key: "value"
        value {
          tensor {
            dtype: DT_INT32
            tensor_shape {
              dim {
                size: 3
              }
            }
            tensor_content: "\004\000\000\000\200\000\000\000@\000\000\000"
          }
        }
      }
    }
    node {
      name: "conv1d_2/random_uniform/min"
      op: "Const"
      attr {
        key: "_output_shapes"
        value {
          list {
            shape {
            }
          }
        }
      }
      attr {
        key: "dtype"
        value {
          type: DT_FLOAT
        }
      }
      attr {
        key: "value"
        value {
          tensor {
            dtype: DT_FLOAT
            tensor_shape {
            }
            float_val: -0.0883883461356163
          }
        }
      }
    }
    node {
      name: "conv1d_2/random_uniform/max"
      op: "Const"
      attr {
        key: "_output_shapes"
        value {
          list {
            shape {
            }
          }
        }
      }
      attr {
        key: "dtype"
        value {
          type: DT_FLOAT
        }
      }
      attr {
        key: "value"
        value {
          tensor {
            dtype: DT_FLOAT
            tensor_shape {
            }
            float_val: 0.0883883461356163
          }
        }
      }
    }
    node {
      name: "conv1d_2/random_uniform/RandomUniform"
      op: "RandomUniform"
      input: "conv1d_2/random_uniform/shape"
      attr {
        key: "T"
        value {
          type: DT_INT32
        }
      }
      attr {
        key: "_output_shapes"
        value {
          list {
            shape {
              dim {
                size: 4
              }
              dim {
                size: 128
              }
              dim {
                size: 64
              }
            }
          }
        }
      }
      attr {
        key: "dtype"
        value {
          type: DT_FLOAT
        }
      }
      attr {
        key: "seed"
        value {
          i: 87654321
        }
      }
      attr {
        key: "seed2"
        value {
          i: 3540029
        }
      }
    }
    node {
      name: "conv1d_2/random_uniform/sub"
      op: "Sub"
      input: "conv1d_2/random_uniform/max"
      input: "conv1d_2/random_uniform/min"
      attr {
        key: "T"
        value {
          type: DT_FLOAT
        }
      }
      attr {
        key: "_output_shapes"
        value {
          list {
            shape {
            }
          }
        }
      }
    }
    node {
      name: "conv1d_2/random_uniform/mul"
      op: "Mul"
      input: "conv1d_2/random_uniform/RandomUniform"
      input: "conv1d_2/random_uniform/sub"
      attr {
        key: "T"
        value {
          type: DT_FLOAT
        }
      }
      attr {
        key: "_output_shapes"
        value {
          list {
            shape {
              dim {
                size: 4
              }
              dim {
                size: 128
              }
              dim {
                size: 64
              }
            }
          }
        }
      }
    }
    node {
      name: "conv1d_2/random_uniform"
      op: "Add"
      input: "conv1d_2/random_uniform/mul"
      input: "conv1d_2/random_uniform/min"
      attr {
        key: "T"
        value {
          type: DT_FLOAT
        }
      }
      attr {
        key: "_output_shapes"
        value {
          list {
            shape {
              dim {
                size: 4
              }
              dim {
                size: 128
              }
              dim {
                size: 64
              }
            }
          }
        }
      }
    }
    node {
      name: "conv1d_2/kernel"
      op: "VarHandleOp"
      attr {
        key: "_class"
        value {
          list {
            s: "loc:@conv1d_2/kernel"
          }
        }
      }
      attr {
        key: "_output_shapes"
        value {
          list {
            shape {
            }
          }
        }
      }
      attr {
        key: "container"
        value {
          s: ""
        }
      }
      attr {
        key: "dtype"
        value {
          type: DT_FLOAT
        }
      }
      attr {
        key: "shape"
        value {
          shape {
            dim {
              size: 4
            }
            dim {
              size: 128
            }
            dim {
              size: 64
            }
          }
        }
      }
      attr {
        key: "shared_name"
        value {
          s: "conv1d_2/kernel"
        }
      }
    }
    node {
      name: "conv1d_2/kernel/IsInitialized/VarIsInitializedOp"
      op: "VarIsInitializedOp"
      input: "conv1d_2/kernel"
      attr {
        key: "_output_shapes"
        value {
          list {
            shape {
            }
          }
        }
      }
    }
    node {
      name: "conv1d_2/kernel/Assign"
      op: "AssignVariableOp"
      input: "conv1d_2/kernel"
      input: "conv1d_2/random_uniform"
      attr {
        key: "dtype"
        value {
          type: DT_FLOAT
        }
      }
    }
    node {
      name: "conv1d_2/kernel/Read/ReadVariableOp"
      op: "ReadVariableOp"
      input: "conv1d_2/kernel"
      attr {
        key: "_output_shapes"
        value {
          list {
            shape {
              dim {
                size: 4
              }
              dim {
                size: 128
              }
              dim {
                size: 64
              }
            }
          }
        }
      }
      attr {
        key: "dtype"
        value {
          type: DT_FLOAT
        }
      }
    }
    node {
      name: "conv1d_2/Const"
      op: "Const"
      attr {
        key: "_output_shapes"
        value {
          list {
            shape {
              dim {
                size: 64
              }
            }
          }
        }
      }
      attr {
        key: "dtype"
        value {
          type: DT_FLOAT
        }
      }
      attr {
        key: "value"
        value {
          tensor {
            dtype: DT_FLOAT
            tensor_shape {
              dim {
                size: 64
              }
            }
            float_val: 0.0
          }
        }
      }
    }
    node {
      name: "conv1d_2/bias"
      op: "VarHandleOp"
      attr {
        key: "_class"
        value {
          list {
            s: "loc:@conv1d_2/bias"
          }
        }
      }
      attr {
        key: "_output_shapes"
        value {
          list {
            shape {
            }
          }
        }
      }
      attr {
        key: "container"
        value {
          s: ""
        }
      }
      attr {
        key: "dtype"
        value {
          type: DT_FLOAT
        }
      }
      attr {
        key: "shape"
        value {
          shape {
            dim {
              size: 64
            }
          }
        }
      }
      attr {
        key: "shared_name"
        value {
          s: "conv1d_2/bias"
        }
      }
    }
    node {
      name: "conv1d_2/bias/IsInitialized/VarIsInitializedOp"
      op: "VarIsInitializedOp"
      input: "conv1d_2/bias"
      attr {
        key: "_output_shapes"
        value {
          list {
            shape {
            }
          }
        }
      }
    }
    node {
      name: "conv1d_2/bias/Assign"
      op: "AssignVariableOp"
      input: "conv1d_2/bias"
      input: "conv1d_2/Const"
      attr {
        key: "dtype"
        value {
          type: DT_FLOAT
        }
      }
    }
    node {
      name: "conv1d_2/bias/Read/ReadVariableOp"
      op: "ReadVariableOp"
      input: "conv1d_2/bias"
      attr {
        key: "_output_shapes"
        value {
          list {
            shape {
              dim {
                size: 64
              }
            }
          }
        }
      }
      attr {
        key: "dtype"
        value {
          type: DT_FLOAT
        }
      }
    }
    node {
      name: "conv1d_2/convolution/ExpandDims/dim"
      op: "Const"
      attr {
        key: "_output_shapes"
        value {
          list {
            shape {
            }
          }
        }
      }
      attr {
        key: "dtype"
        value {
          type: DT_INT32
        }
      }
      attr {
        key: "value"
        value {
          tensor {
            dtype: DT_INT32
            tensor_shape {
            }
            int_val: 1
          }
        }
      }
    }
    node {
      name: "conv1d_2/convolution/ExpandDims"
      op: "ExpandDims"
      input: "embedding_1/embedding_lookup/Identity_1"
      input: "conv1d_2/convolution/ExpandDims/dim"
      attr {
        key: "T"
        value {
          type: DT_FLOAT
        }
      }
      attr {
        key: "Tdim"
        value {
          type: DT_INT32
        }
      }
      attr {
        key: "_output_shapes"
        value {
          list {
            shape {
              dim {
                size: -1
              }
              dim {
                size: 1
              }
              dim {
                size: 120
              }
              dim {
                size: 128
              }
            }
          }
        }
      }
    }
    node {
      name: "conv1d_2/convolution/ExpandDims_1/ReadVariableOp"
      op: "ReadVariableOp"
      input: "conv1d_2/kernel"
      attr {
        key: "_output_shapes"
        value {
          list {
            shape {
              dim {
                size: 4
              }
              dim {
                size: 128
              }
              dim {
                size: 64
              }
            }
          }
        }
      }
      attr {
        key: "dtype"
        value {
          type: DT_FLOAT
        }
      }
    }
    node {
      name: "conv1d_2/convolution/ExpandDims_1/dim"
      op: "Const"
      attr {
        key: "_output_shapes"
        value {
          list {
            shape {
            }
          }
        }
      }
      attr {
        key: "dtype"
        value {
          type: DT_INT32
        }
      }
      attr {
        key: "value"
        value {
          tensor {
            dtype: DT_INT32
            tensor_shape {
            }
            int_val: 0
          }
        }
      }
    }
    node {
      name: "conv1d_2/convolution/ExpandDims_1"
      op: "ExpandDims"
      input: "conv1d_2/convolution/ExpandDims_1/ReadVariableOp"
      input: "conv1d_2/convolution/ExpandDims_1/dim"
      attr {
        key: "T"
        value {
          type: DT_FLOAT
        }
      }
      attr {
        key: "Tdim"
        value {
          type: DT_INT32
        }
      }
      attr {
        key: "_output_shapes"
        value {
          list {
            shape {
              dim {
                size: 1
              }
              dim {
                size: 4
              }
              dim {
                size: 128
              }
              dim {
                size: 64
              }
            }
          }
        }
      }
    }
    node {
      name: "conv1d_2/convolution"
      op: "Conv2D"
      input: "conv1d_2/convolution/ExpandDims"
      input: "conv1d_2/convolution/ExpandDims_1"
      attr {
        key: "T"
        value {
          type: DT_FLOAT
        }
      }
      attr {
        key: "_output_shapes"
        value {
          list {
            shape {
              dim {
                size: -1
              }
              dim {
                size: 1
              }
              dim {
                size: 117
              }
              dim {
                size: 64
              }
            }
          }
        }
      }
      attr {
        key: "data_format"
        value {
          s: "NHWC"
        }
      }
      attr {
        key: "dilations"
        value {
          list {
            i: 1
            i: 1
            i: 1
            i: 1
          }
        }
      }
      attr {
        key: "explicit_paddings"
        value {
          list {
          }
        }
      }
      attr {
        key: "padding"
        value {
          s: "VALID"
        }
      }
      attr {
        key: "strides"
        value {
          list {
            i: 1
            i: 1
            i: 1
            i: 1
          }
        }
      }
      attr {
        key: "use_cudnn_on_gpu"
        value {
          b: true
        }
      }
    }
    node {
      name: "conv1d_2/convolution/Squeeze"
      op: "Squeeze"
      input: "conv1d_2/convolution"
      attr {
        key: "T"
        value {
          type: DT_FLOAT
        }
      }
      attr {
        key: "_output_shapes"
        value {
          list {
            shape {
              dim {
                size: -1
              }
              dim {
                size: 117
              }
              dim {
                size: 64
              }
            }
          }
        }
      }
      attr {
        key: "squeeze_dims"
        value {
          list {
            i: 1
          }
        }
      }
    }
    node {
      name: "conv1d_2/Reshape/ReadVariableOp"
      op: "ReadVariableOp"
      input: "conv1d_2/bias"
      attr {
        key: "_output_shapes"
        value {
          list {
            shape {
              dim {
                size: 64
              }
            }
          }
        }
      }
      attr {
        key: "dtype"
        value {
          type: DT_FLOAT
        }
      }
    }
    node {
      name: "conv1d_2/Reshape/shape"
      op: "Const"
      attr {
        key: "_output_shapes"
        value {
          list {
            shape {
              dim {
                size: 3
              }
            }
          }
        }
      }
      attr {
        key: "dtype"
        value {
          type: DT_INT32
        }
      }
      attr {
        key: "value"
        value {
          tensor {
            dtype: DT_INT32
            tensor_shape {
              dim {
                size: 3
              }
            }
            tensor_content: "\001\000\000\000\001\000\000\000@\000\000\000"
          }
        }
      }
    }
    node {
      name: "conv1d_2/Reshape"
      op: "Reshape"
      input: "conv1d_2/Reshape/ReadVariableOp"
      input: "conv1d_2/Reshape/shape"
      attr {
        key: "T"
        value {
          type: DT_FLOAT
        }
      }
      attr {
        key: "Tshape"
        value {
          type: DT_INT32
        }
      }
      attr {
        key: "_output_shapes"
        value {
          list {
            shape {
              dim {
                size: 1
              }
              dim {
                size: 1
              }
              dim {
                size: 64
              }
            }
          }
        }
      }
    }
    node {
      name: "conv1d_2/add"
      op: "AddV2"
      input: "conv1d_2/convolution/Squeeze"
      input: "conv1d_2/Reshape"
      attr {
        key: "T"
        value {
          type: DT_FLOAT
        }
      }
      attr {
        key: "_output_shapes"
        value {
          list {
            shape {
              dim {
                size: -1
              }
              dim {
                size: 117
              }
              dim {
                size: 64
              }
            }
          }
        }
      }
    }
    node {
      name: "conv1d_2/Relu"
      op: "Relu"
      input: "conv1d_2/add"
      attr {
        key: "T"
        value {
          type: DT_FLOAT
        }
      }
      attr {
        key: "_output_shapes"
        value {
          list {
            shape {
              dim {
                size: -1
              }
              dim {
                size: 117
              }
              dim {
                size: 64
              }
            }
          }
        }
      }
    }
    node {
      name: "global_max_pooling1d_2/Max/reduction_indices"
      op: "Const"
      attr {
        key: "_output_shapes"
        value {
          list {
            shape {
            }
          }
        }
      }
      attr {
        key: "dtype"
        value {
          type: DT_INT32
        }
      }
      attr {
        key: "value"
        value {
          tensor {
            dtype: DT_INT32
            tensor_shape {
            }
            int_val: 1
          }
        }
      }
    }
    node {
      name: "global_max_pooling1d_2/Max"
      op: "Max"
      input: "conv1d_2/Relu"
      input: "global_max_pooling1d_2/Max/reduction_indices"
      attr {
        key: "T"
        value {
          type: DT_FLOAT
        }
      }
      attr {
        key: "Tidx"
        value {
          type: DT_INT32
        }
      }
      attr {
        key: "_output_shapes"
        value {
          list {
            shape {
              dim {
                size: -1
              }
              dim {
                size: 64
              }
            }
          }
        }
      }
      attr {
        key: "keep_dims"
        value {
          b: false
        }
      }
    }
    node {
      name: "conv1d_3/random_uniform/shape"
      op: "Const"
      attr {
        key: "_output_shapes"
        value {
          list {
            shape {
              dim {
                size: 3
              }
            }
          }
        }
      }
      attr {
        key: "dtype"
        value {
          type: DT_INT32
        }
      }
      attr {
        key: "value"
        value {
          tensor {
            dtype: DT_INT32
            tensor_shape {
              dim {
                size: 3
              }
            }
            tensor_content: "\005\000\000\000\200\000\000\000@\000\000\000"
          }
        }
      }
    }
    node {
      name: "conv1d_3/random_uniform/min"
      op: "Const"
      attr {
        key: "_output_shapes"
        value {
          list {
            shape {
            }
          }
        }
      }
      attr {
        key: "dtype"
        value {
          type: DT_FLOAT
        }
      }
      attr {
        key: "value"
        value {
          tensor {
            dtype: DT_FLOAT
            tensor_shape {
            }
            float_val: -0.07905694097280502
          }
        }
      }
    }
    node {
      name: "conv1d_3/random_uniform/max"
      op: "Const"
      attr {
        key: "_output_shapes"
        value {
          list {
            shape {
            }
          }
        }
      }
      attr {
        key: "dtype"
        value {
          type: DT_FLOAT
        }
      }
      attr {
        key: "value"
        value {
          tensor {
            dtype: DT_FLOAT
            tensor_shape {
            }
            float_val: 0.07905694097280502
          }
        }
      }
    }
    node {
      name: "conv1d_3/random_uniform/RandomUniform"
      op: "RandomUniform"
      input: "conv1d_3/random_uniform/shape"
      attr {
        key: "T"
        value {
          type: DT_INT32
        }
      }
      attr {
        key: "_output_shapes"
        value {
          list {
            shape {
              dim {
                size: 5
              }
              dim {
                size: 128
              }
              dim {
                size: 64
              }
            }
          }
        }
      }
      attr {
        key: "dtype"
        value {
          type: DT_FLOAT
        }
      }
      attr {
        key: "seed"
        value {
          i: 87654321
        }
      }
      attr {
        key: "seed2"
        value {
          i: 4261197
        }
      }
    }
    node {
      name: "conv1d_3/random_uniform/sub"
      op: "Sub"
      input: "conv1d_3/random_uniform/max"
      input: "conv1d_3/random_uniform/min"
      attr {
        key: "T"
        value {
          type: DT_FLOAT
        }
      }
      attr {
        key: "_output_shapes"
        value {
          list {
            shape {
            }
          }
        }
      }
    }
    node {
      name: "conv1d_3/random_uniform/mul"
      op: "Mul"
      input: "conv1d_3/random_uniform/RandomUniform"
      input: "conv1d_3/random_uniform/sub"
      attr {
        key: "T"
        value {
          type: DT_FLOAT
        }
      }
      attr {
        key: "_output_shapes"
        value {
          list {
            shape {
              dim {
                size: 5
              }
              dim {
                size: 128
              }
              dim {
                size: 64
              }
            }
          }
        }
      }
    }
    node {
      name: "conv1d_3/random_uniform"
      op: "Add"
      input: "conv1d_3/random_uniform/mul"
      input: "conv1d_3/random_uniform/min"
      attr {
        key: "T"
        value {
          type: DT_FLOAT
        }
      }
      attr {
        key: "_output_shapes"
        value {
          list {
            shape {
              dim {
                size: 5
              }
              dim {
                size: 128
              }
              dim {
                size: 64
              }
            }
          }
        }
      }
    }
    node {
      name: "conv1d_3/kernel"
      op: "VarHandleOp"
      attr {
        key: "_class"
        value {
          list {
            s: "loc:@conv1d_3/kernel"
          }
        }
      }
      attr {
        key: "_output_shapes"
        value {
          list {
            shape {
            }
          }
        }
      }
      attr {
        key: "container"
        value {
          s: ""
        }
      }
      attr {
        key: "dtype"
        value {
          type: DT_FLOAT
        }
      }
      attr {
        key: "shape"
        value {
          shape {
            dim {
              size: 5
            }
            dim {
              size: 128
            }
            dim {
              size: 64
            }
          }
        }
      }
      attr {
        key: "shared_name"
        value {
          s: "conv1d_3/kernel"
        }
      }
    }
    node {
      name: "conv1d_3/kernel/IsInitialized/VarIsInitializedOp"
      op: "VarIsInitializedOp"
      input: "conv1d_3/kernel"
      attr {
        key: "_output_shapes"
        value {
          list {
            shape {
            }
          }
        }
      }
    }
    node {
      name: "conv1d_3/kernel/Assign"
      op: "AssignVariableOp"
      input: "conv1d_3/kernel"
      input: "conv1d_3/random_uniform"
      attr {
        key: "dtype"
        value {
          type: DT_FLOAT
        }
      }
    }
    node {
      name: "conv1d_3/kernel/Read/ReadVariableOp"
      op: "ReadVariableOp"
      input: "conv1d_3/kernel"
      attr {
        key: "_output_shapes"
        value {
          list {
            shape {
              dim {
                size: 5
              }
              dim {
                size: 128
              }
              dim {
                size: 64
              }
            }
          }
        }
      }
      attr {
        key: "dtype"
        value {
          type: DT_FLOAT
        }
      }
    }
    node {
      name: "conv1d_3/Const"
      op: "Const"
      attr {
        key: "_output_shapes"
        value {
          list {
            shape {
              dim {
                size: 64
              }
            }
          }
        }
      }
      attr {
        key: "dtype"
        value {
          type: DT_FLOAT
        }
      }
      attr {
        key: "value"
        value {
          tensor {
            dtype: DT_FLOAT
            tensor_shape {
              dim {
                size: 64
              }
            }
            float_val: 0.0
          }
        }
      }
    }
    node {
      name: "conv1d_3/bias"
      op: "VarHandleOp"
      attr {
        key: "_class"
        value {
          list {
            s: "loc:@conv1d_3/bias"
          }
        }
      }
      attr {
        key: "_output_shapes"
        value {
          list {
            shape {
            }
          }
        }
      }
      attr {
        key: "container"
        value {
          s: ""
        }
      }
      attr {
        key: "dtype"
        value {
          type: DT_FLOAT
        }
      }
      attr {
        key: "shape"
        value {
          shape {
            dim {
              size: 64
            }
          }
        }
      }
      attr {
        key: "shared_name"
        value {
          s: "conv1d_3/bias"
        }
      }
    }
    node {
      name: "conv1d_3/bias/IsInitialized/VarIsInitializedOp"
      op: "VarIsInitializedOp"
      input: "conv1d_3/bias"
      attr {
        key: "_output_shapes"
        value {
          list {
            shape {
            }
          }
        }
      }
    }
    node {
      name: "conv1d_3/bias/Assign"
      op: "AssignVariableOp"
      input: "conv1d_3/bias"
      input: "conv1d_3/Const"
      attr {
        key: "dtype"
        value {
          type: DT_FLOAT
        }
      }
    }
    node {
      name: "conv1d_3/bias/Read/ReadVariableOp"
      op: "ReadVariableOp"
      input: "conv1d_3/bias"
      attr {
        key: "_output_shapes"
        value {
          list {
            shape {
              dim {
                size: 64
              }
            }
          }
        }
      }
      attr {
        key: "dtype"
        value {
          type: DT_FLOAT
        }
      }
    }
    node {
      name: "conv1d_3/convolution/ExpandDims/dim"
      op: "Const"
      attr {
        key: "_output_shapes"
        value {
          list {
            shape {
            }
          }
        }
      }
      attr {
        key: "dtype"
        value {
          type: DT_INT32
        }
      }
      attr {
        key: "value"
        value {
          tensor {
            dtype: DT_INT32
            tensor_shape {
            }
            int_val: 1
          }
        }
      }
    }
    node {
      name: "conv1d_3/convolution/ExpandDims"
      op: "ExpandDims"
      input: "embedding_1/embedding_lookup/Identity_1"
      input: "conv1d_3/convolution/ExpandDims/dim"
      attr {
        key: "T"
        value {
          type: DT_FLOAT
        }
      }
      attr {
        key: "Tdim"
        value {
          type: DT_INT32
        }
      }
      attr {
        key: "_output_shapes"
        value {
          list {
            shape {
              dim {
                size: -1
              }
              dim {
                size: 1
              }
              dim {
                size: 120
              }
              dim {
                size: 128
              }
            }
          }
        }
      }
    }
    node {
      name: "conv1d_3/convolution/ExpandDims_1/ReadVariableOp"
      op: "ReadVariableOp"
      input: "conv1d_3/kernel"
      attr {
        key: "_output_shapes"
        value {
          list {
            shape {
              dim {
                size: 5
              }
              dim {
                size: 128
              }
              dim {
                size: 64
              }
            }
          }
        }
      }
      attr {
        key: "dtype"
        value {
          type: DT_FLOAT
        }
      }
    }
    node {
      name: "conv1d_3/convolution/ExpandDims_1/dim"
      op: "Const"
      attr {
        key: "_output_shapes"
        value {
          list {
            shape {
            }
          }
        }
      }
      attr {
        key: "dtype"
        value {
          type: DT_INT32
        }
      }
      attr {
        key: "value"
        value {
          tensor {
            dtype: DT_INT32
            tensor_shape {
            }
            int_val: 0
          }
        }
      }
    }
    node {
      name: "conv1d_3/convolution/ExpandDims_1"
      op: "ExpandDims"
      input: "conv1d_3/convolution/ExpandDims_1/ReadVariableOp"
      input: "conv1d_3/convolution/ExpandDims_1/dim"
      attr {
        key: "T"
        value {
          type: DT_FLOAT
        }
      }
      attr {
        key: "Tdim"
        value {
          type: DT_INT32
        }
      }
      attr {
        key: "_output_shapes"
        value {
          list {
            shape {
              dim {
                size: 1
              }
              dim {
                size: 5
              }
              dim {
                size: 128
              }
              dim {
                size: 64
              }
            }
          }
        }
      }
    }
    node {
      name: "conv1d_3/convolution"
      op: "Conv2D"
      input: "conv1d_3/convolution/ExpandDims"
      input: "conv1d_3/convolution/ExpandDims_1"
      attr {
        key: "T"
        value {
          type: DT_FLOAT
        }
      }
      attr {
        key: "_output_shapes"
        value {
          list {
            shape {
              dim {
                size: -1
              }
              dim {
                size: 1
              }
              dim {
                size: 116
              }
              dim {
                size: 64
              }
            }
          }
        }
      }
      attr {
        key: "data_format"
        value {
          s: "NHWC"
        }
      }
      attr {
        key: "dilations"
        value {
          list {
            i: 1
            i: 1
            i: 1
            i: 1
          }
        }
      }
      attr {
        key: "explicit_paddings"
        value {
          list {
          }
        }
      }
      attr {
        key: "padding"
        value {
          s: "VALID"
        }
      }
      attr {
        key: "strides"
        value {
          list {
            i: 1
            i: 1
            i: 1
            i: 1
          }
        }
      }
      attr {
        key: "use_cudnn_on_gpu"
        value {
          b: true
        }
      }
    }
    node {
      name: "conv1d_3/convolution/Squeeze"
      op: "Squeeze"
      input: "conv1d_3/convolution"
      attr {
        key: "T"
        value {
          type: DT_FLOAT
        }
      }
      attr {
        key: "_output_shapes"
        value {
          list {
            shape {
              dim {
                size: -1
              }
              dim {
                size: 116
              }
              dim {
                size: 64
              }
            }
          }
        }
      }
      attr {
        key: "squeeze_dims"
        value {
          list {
            i: 1
          }
        }
      }
    }
    node {
      name: "conv1d_3/Reshape/ReadVariableOp"
      op: "ReadVariableOp"
      input: "conv1d_3/bias"
      attr {
        key: "_output_shapes"
        value {
          list {
            shape {
              dim {
                size: 64
              }
            }
          }
        }
      }
      attr {
        key: "dtype"
        value {
          type: DT_FLOAT
        }
      }
    }
    node {
      name: "conv1d_3/Reshape/shape"
      op: "Const"
      attr {
        key: "_output_shapes"
        value {
          list {
            shape {
              dim {
                size: 3
              }
            }
          }
        }
      }
      attr {
        key: "dtype"
        value {
          type: DT_INT32
        }
      }
      attr {
        key: "value"
        value {
          tensor {
            dtype: DT_INT32
            tensor_shape {
              dim {
                size: 3
              }
            }
            tensor_content: "\001\000\000\000\001\000\000\000@\000\000\000"
          }
        }
      }
    }
    node {
      name: "conv1d_3/Reshape"
      op: "Reshape"
      input: "conv1d_3/Reshape/ReadVariableOp"
      input: "conv1d_3/Reshape/shape"
      attr {
        key: "T"
        value {
          type: DT_FLOAT
        }
      }
      attr {
        key: "Tshape"
        value {
          type: DT_INT32
        }
      }
      attr {
        key: "_output_shapes"
        value {
          list {
            shape {
              dim {
                size: 1
              }
              dim {
                size: 1
              }
              dim {
                size: 64
              }
            }
          }
        }
      }
    }
    node {
      name: "conv1d_3/add"
      op: "AddV2"
      input: "conv1d_3/convolution/Squeeze"
      input: "conv1d_3/Reshape"
      attr {
        key: "T"
        value {
          type: DT_FLOAT
        }
      }
      attr {
        key: "_output_shapes"
        value {
          list {
            shape {
              dim {
                size: -1
              }
              dim {
                size: 116
              }
              dim {
                size: 64
              }
            }
          }
        }
      }
    }
    node {
      name: "conv1d_3/Relu"
      op: "Relu"
      input: "conv1d_3/add"
      attr {
        key: "T"
        value {
          type: DT_FLOAT
        }
      }
      attr {
        key: "_output_shapes"
        value {
          list {
            shape {
              dim {
                size: -1
              }
              dim {
                size: 116
              }
              dim {
                size: 64
              }
            }
          }
        }
      }
    }
    node {
      name: "global_max_pooling1d_3/Max/reduction_indices"
      op: "Const"
      attr {
        key: "_output_shapes"
        value {
          list {
            shape {
            }
          }
        }
      }
      attr {
        key: "dtype"
        value {
          type: DT_INT32
        }
      }
      attr {
        key: "value"
        value {
          tensor {
            dtype: DT_INT32
            tensor_shape {
            }
            int_val: 1
          }
        }
      }
    }
    node {
      name: "global_max_pooling1d_3/Max"
      op: "Max"
      input: "conv1d_3/Relu"
      input: "global_max_pooling1d_3/Max/reduction_indices"
      attr {
        key: "T"
        value {
          type: DT_FLOAT
        }
      }
      attr {
        key: "Tidx"
        value {
          type: DT_INT32
        }
      }
      attr {
        key: "_output_shapes"
        value {
          list {
            shape {
              dim {
                size: -1
              }
              dim {
                size: 64
              }
            }
          }
        }
      }
      attr {
        key: "keep_dims"
        value {
          b: false
        }
      }
    }
    node {
      name: "conv1d_4/random_uniform/shape"
      op: "Const"
      attr {
        key: "_output_shapes"
        value {
          list {
            shape {
              dim {
                size: 3
              }
            }
          }
        }
      }
      attr {
        key: "dtype"
        value {
          type: DT_INT32
        }
      }
      attr {
        key: "value"
        value {
          tensor {
            dtype: DT_INT32
            tensor_shape {
              dim {
                size: 3
              }
            }
            tensor_content: "\006\000\000\000\200\000\000\000@\000\000\000"
          }
        }
      }
    }
    node {
      name: "conv1d_4/random_uniform/min"
      op: "Const"
      attr {
        key: "_output_shapes"
        value {
          list {
            shape {
            }
          }
        }
      }
      attr {
        key: "dtype"
        value {
          type: DT_FLOAT
        }
      }
      attr {
        key: "value"
        value {
          tensor {
            dtype: DT_FLOAT
            tensor_shape {
            }
            float_val: -0.07216878235340118
          }
        }
      }
    }
    node {
      name: "conv1d_4/random_uniform/max"
      op: "Const"
      attr {
        key: "_output_shapes"
        value {
          list {
            shape {
            }
          }
        }
      }
      attr {
        key: "dtype"
        value {
          type: DT_FLOAT
        }
      }
      attr {
        key: "value"
        value {
          tensor {
            dtype: DT_FLOAT
            tensor_shape {
            }
            float_val: 0.07216878235340118
          }
        }
      }
    }
    node {
      name: "conv1d_4/random_uniform/RandomUniform"
      op: "RandomUniform"
      input: "conv1d_4/random_uniform/shape"
      attr {
        key: "T"
        value {
          type: DT_INT32
        }
      }
      attr {
        key: "_output_shapes"
        value {
          list {
            shape {
              dim {
                size: 6
              }
              dim {
                size: 128
              }
              dim {
                size: 64
              }
            }
          }
        }
      }
      attr {
        key: "dtype"
        value {
          type: DT_FLOAT
        }
      }
      attr {
        key: "seed"
        value {
          i: 87654321
        }
      }
      attr {
        key: "seed2"
        value {
          i: 9722139
        }
      }
    }
    node {
      name: "conv1d_4/random_uniform/sub"
      op: "Sub"
      input: "conv1d_4/random_uniform/max"
      input: "conv1d_4/random_uniform/min"
      attr {
        key: "T"
        value {
          type: DT_FLOAT
        }
      }
      attr {
        key: "_output_shapes"
        value {
          list {
            shape {
            }
          }
        }
      }
    }
    node {
      name: "conv1d_4/random_uniform/mul"
      op: "Mul"
      input: "conv1d_4/random_uniform/RandomUniform"
      input: "conv1d_4/random_uniform/sub"
      attr {
        key: "T"
        value {
          type: DT_FLOAT
        }
      }
      attr {
        key: "_output_shapes"
        value {
          list {
            shape {
              dim {
                size: 6
              }
              dim {
                size: 128
              }
              dim {
                size: 64
              }
            }
          }
        }
      }
    }
    node {
      name: "conv1d_4/random_uniform"
      op: "Add"
      input: "conv1d_4/random_uniform/mul"
      input: "conv1d_4/random_uniform/min"
      attr {
        key: "T"
        value {
          type: DT_FLOAT
        }
      }
      attr {
        key: "_output_shapes"
        value {
          list {
            shape {
              dim {
                size: 6
              }
              dim {
                size: 128
              }
              dim {
                size: 64
              }
            }
          }
        }
      }
    }
    node {
      name: "conv1d_4/kernel"
      op: "VarHandleOp"
      attr {
        key: "_class"
        value {
          list {
            s: "loc:@conv1d_4/kernel"
          }
        }
      }
      attr {
        key: "_output_shapes"
        value {
          list {
            shape {
            }
          }
        }
      }
      attr {
        key: "container"
        value {
          s: ""
        }
      }
      attr {
        key: "dtype"
        value {
          type: DT_FLOAT
        }
      }
      attr {
        key: "shape"
        value {
          shape {
            dim {
              size: 6
            }
            dim {
              size: 128
            }
            dim {
              size: 64
            }
          }
        }
      }
      attr {
        key: "shared_name"
        value {
          s: "conv1d_4/kernel"
        }
      }
    }
    node {
      name: "conv1d_4/kernel/IsInitialized/VarIsInitializedOp"
      op: "VarIsInitializedOp"
      input: "conv1d_4/kernel"
      attr {
        key: "_output_shapes"
        value {
          list {
            shape {
            }
          }
        }
      }
    }
    node {
      name: "conv1d_4/kernel/Assign"
      op: "AssignVariableOp"
      input: "conv1d_4/kernel"
      input: "conv1d_4/random_uniform"
      attr {
        key: "dtype"
        value {
          type: DT_FLOAT
        }
      }
    }
    node {
      name: "conv1d_4/kernel/Read/ReadVariableOp"
      op: "ReadVariableOp"
      input: "conv1d_4/kernel"
      attr {
        key: "_output_shapes"
        value {
          list {
            shape {
              dim {
                size: 6
              }
              dim {
                size: 128
              }
              dim {
                size: 64
              }
            }
          }
        }
      }
      attr {
        key: "dtype"
        value {
          type: DT_FLOAT
        }
      }
    }
    node {
      name: "conv1d_4/Const"
      op: "Const"
      attr {
        key: "_output_shapes"
        value {
          list {
            shape {
              dim {
                size: 64
              }
            }
          }
        }
      }
      attr {
        key: "dtype"
        value {
          type: DT_FLOAT
        }
      }
      attr {
        key: "value"
        value {
          tensor {
            dtype: DT_FLOAT
            tensor_shape {
              dim {
                size: 64
              }
            }
            float_val: 0.0
          }
        }
      }
    }
    node {
      name: "conv1d_4/bias"
      op: "VarHandleOp"
      attr {
        key: "_class"
        value {
          list {
            s: "loc:@conv1d_4/bias"
          }
        }
      }
      attr {
        key: "_output_shapes"
        value {
          list {
            shape {
            }
          }
        }
      }
      attr {
        key: "container"
        value {
          s: ""
        }
      }
      attr {
        key: "dtype"
        value {
          type: DT_FLOAT
        }
      }
      attr {
        key: "shape"
        value {
          shape {
            dim {
              size: 64
            }
          }
        }
      }
      attr {
        key: "shared_name"
        value {
          s: "conv1d_4/bias"
        }
      }
    }
    node {
      name: "conv1d_4/bias/IsInitialized/VarIsInitializedOp"
      op: "VarIsInitializedOp"
      input: "conv1d_4/bias"
      attr {
        key: "_output_shapes"
        value {
          list {
            shape {
            }
          }
        }
      }
    }
    node {
      name: "conv1d_4/bias/Assign"
      op: "AssignVariableOp"
      input: "conv1d_4/bias"
      input: "conv1d_4/Const"
      attr {
        key: "dtype"
        value {
          type: DT_FLOAT
        }
      }
    }
    node {
      name: "conv1d_4/bias/Read/ReadVariableOp"
      op: "ReadVariableOp"
      input: "conv1d_4/bias"
      attr {
        key: "_output_shapes"
        value {
          list {
            shape {
              dim {
                size: 64
              }
            }
          }
        }
      }
      attr {
        key: "dtype"
        value {
          type: DT_FLOAT
        }
      }
    }
    node {
      name: "conv1d_4/convolution/ExpandDims/dim"
      op: "Const"
      attr {
        key: "_output_shapes"
        value {
          list {
            shape {
            }
          }
        }
      }
      attr {
        key: "dtype"
        value {
          type: DT_INT32
        }
      }
      attr {
        key: "value"
        value {
          tensor {
            dtype: DT_INT32
            tensor_shape {
            }
            int_val: 1
          }
        }
      }
    }
    node {
      name: "conv1d_4/convolution/ExpandDims"
      op: "ExpandDims"
      input: "embedding_1/embedding_lookup/Identity_1"
      input: "conv1d_4/convolution/ExpandDims/dim"
      attr {
        key: "T"
        value {
          type: DT_FLOAT
        }
      }
      attr {
        key: "Tdim"
        value {
          type: DT_INT32
        }
      }
      attr {
        key: "_output_shapes"
        value {
          list {
            shape {
              dim {
                size: -1
              }
              dim {
                size: 1
              }
              dim {
                size: 120
              }
              dim {
                size: 128
              }
            }
          }
        }
      }
    }
    node {
      name: "conv1d_4/convolution/ExpandDims_1/ReadVariableOp"
      op: "ReadVariableOp"
      input: "conv1d_4/kernel"
      attr {
        key: "_output_shapes"
        value {
          list {
            shape {
              dim {
                size: 6
              }
              dim {
                size: 128
              }
              dim {
                size: 64
              }
            }
          }
        }
      }
      attr {
        key: "dtype"
        value {
          type: DT_FLOAT
        }
      }
    }
    node {
      name: "conv1d_4/convolution/ExpandDims_1/dim"
      op: "Const"
      attr {
        key: "_output_shapes"
        value {
          list {
            shape {
            }
          }
        }
      }
      attr {
        key: "dtype"
        value {
          type: DT_INT32
        }
      }
      attr {
        key: "value"
        value {
          tensor {
            dtype: DT_INT32
            tensor_shape {
            }
            int_val: 0
          }
        }
      }
    }
    node {
      name: "conv1d_4/convolution/ExpandDims_1"
      op: "ExpandDims"
      input: "conv1d_4/convolution/ExpandDims_1/ReadVariableOp"
      input: "conv1d_4/convolution/ExpandDims_1/dim"
      attr {
        key: "T"
        value {
          type: DT_FLOAT
        }
      }
      attr {
        key: "Tdim"
        value {
          type: DT_INT32
        }
      }
      attr {
        key: "_output_shapes"
        value {
          list {
            shape {
              dim {
                size: 1
              }
              dim {
                size: 6
              }
              dim {
                size: 128
              }
              dim {
                size: 64
              }
            }
          }
        }
      }
    }
    node {
      name: "conv1d_4/convolution"
      op: "Conv2D"
      input: "conv1d_4/convolution/ExpandDims"
      input: "conv1d_4/convolution/ExpandDims_1"
      attr {
        key: "T"
        value {
          type: DT_FLOAT
        }
      }
      attr {
        key: "_output_shapes"
        value {
          list {
            shape {
              dim {
                size: -1
              }
              dim {
                size: 1
              }
              dim {
                size: 115
              }
              dim {
                size: 64
              }
            }
          }
        }
      }
      attr {
        key: "data_format"
        value {
          s: "NHWC"
        }
      }
      attr {
        key: "dilations"
        value {
          list {
            i: 1
            i: 1
            i: 1
            i: 1
          }
        }
      }
      attr {
        key: "explicit_paddings"
        value {
          list {
          }
        }
      }
      attr {
        key: "padding"
        value {
          s: "VALID"
        }
      }
      attr {
        key: "strides"
        value {
          list {
            i: 1
            i: 1
            i: 1
            i: 1
          }
        }
      }
      attr {
        key: "use_cudnn_on_gpu"
        value {
          b: true
        }
      }
    }
    node {
      name: "conv1d_4/convolution/Squeeze"
      op: "Squeeze"
      input: "conv1d_4/convolution"
      attr {
        key: "T"
        value {
          type: DT_FLOAT
        }
      }
      attr {
        key: "_output_shapes"
        value {
          list {
            shape {
              dim {
                size: -1
              }
              dim {
                size: 115
              }
              dim {
                size: 64
              }
            }
          }
        }
      }
      attr {
        key: "squeeze_dims"
        value {
          list {
            i: 1
          }
        }
      }
    }
    node {
      name: "conv1d_4/Reshape/ReadVariableOp"
      op: "ReadVariableOp"
      input: "conv1d_4/bias"
      attr {
        key: "_output_shapes"
        value {
          list {
            shape {
              dim {
                size: 64
              }
            }
          }
        }
      }
      attr {
        key: "dtype"
        value {
          type: DT_FLOAT
        }
      }
    }
    node {
      name: "conv1d_4/Reshape/shape"
      op: "Const"
      attr {
        key: "_output_shapes"
        value {
          list {
            shape {
              dim {
                size: 3
              }
            }
          }
        }
      }
      attr {
        key: "dtype"
        value {
          type: DT_INT32
        }
      }
      attr {
        key: "value"
        value {
          tensor {
            dtype: DT_INT32
            tensor_shape {
              dim {
                size: 3
              }
            }
            tensor_content: "\001\000\000\000\001\000\000\000@\000\000\000"
          }
        }
      }
    }
    node {
      name: "conv1d_4/Reshape"
      op: "Reshape"
      input: "conv1d_4/Reshape/ReadVariableOp"
      input: "conv1d_4/Reshape/shape"
      attr {
        key: "T"
        value {
          type: DT_FLOAT
        }
      }
      attr {
        key: "Tshape"
        value {
          type: DT_INT32
        }
      }
      attr {
        key: "_output_shapes"
        value {
          list {
            shape {
              dim {
                size: 1
              }
              dim {
                size: 1
              }
              dim {
                size: 64
              }
            }
          }
        }
      }
    }
    node {
      name: "conv1d_4/add"
      op: "AddV2"
      input: "conv1d_4/convolution/Squeeze"
      input: "conv1d_4/Reshape"
      attr {
        key: "T"
        value {
          type: DT_FLOAT
        }
      }
      attr {
        key: "_output_shapes"
        value {
          list {
            shape {
              dim {
                size: -1
              }
              dim {
                size: 115
              }
              dim {
                size: 64
              }
            }
          }
        }
      }
    }
    node {
      name: "conv1d_4/Relu"
      op: "Relu"
      input: "conv1d_4/add"
      attr {
        key: "T"
        value {
          type: DT_FLOAT
        }
      }
      attr {
        key: "_output_shapes"
        value {
          list {
            shape {
              dim {
                size: -1
              }
              dim {
                size: 115
              }
              dim {
                size: 64
              }
            }
          }
        }
      }
    }
    node {
      name: "global_max_pooling1d_4/Max/reduction_indices"
      op: "Const"
      attr {
        key: "_output_shapes"
        value {
          list {
            shape {
            }
          }
        }
      }
      attr {
        key: "dtype"
        value {
          type: DT_INT32
        }
      }
      attr {
        key: "value"
        value {
          tensor {
            dtype: DT_INT32
            tensor_shape {
            }
            int_val: 1
          }
        }
      }
    }
    node {
      name: "global_max_pooling1d_4/Max"
      op: "Max"
      input: "conv1d_4/Relu"
      input: "global_max_pooling1d_4/Max/reduction_indices"
      attr {
        key: "T"
        value {
          type: DT_FLOAT
        }
      }
      attr {
        key: "Tidx"
        value {
          type: DT_INT32
        }
      }
      attr {
        key: "_output_shapes"
        value {
          list {
            shape {
              dim {
                size: -1
              }
              dim {
                size: 64
              }
            }
          }
        }
      }
      attr {
        key: "keep_dims"
        value {
          b: false
        }
      }
    }
    node {
      name: "concatenate_1/concat/axis"
      op: "Const"
      attr {
        key: "_output_shapes"
        value {
          list {
            shape {
            }
          }
        }
      }
      attr {
        key: "dtype"
        value {
          type: DT_INT32
        }
      }
      attr {
        key: "value"
        value {
          tensor {
            dtype: DT_INT32
            tensor_shape {
            }
            int_val: 1
          }
        }
      }
    }
    node {
      name: "concatenate_1/concat"
      op: "ConcatV2"
      input: "global_max_pooling1d_1/Max"
      input: "global_max_pooling1d_2/Max"
      input: "global_max_pooling1d_3/Max"
      input: "global_max_pooling1d_4/Max"
      input: "concatenate_1/concat/axis"
      attr {
        key: "N"
        value {
          i: 4
        }
      }
      attr {
        key: "T"
        value {
          type: DT_FLOAT
        }
      }
      attr {
        key: "Tidx"
        value {
          type: DT_INT32
        }
      }
      attr {
        key: "_output_shapes"
        value {
          list {
            shape {
              dim {
                size: -1
              }
              dim {
                size: 256
              }
            }
          }
        }
      }
    }
    node {
      name: "dense_1/random_uniform/shape"
      op: "Const"
      attr {
        key: "_output_shapes"
        value {
          list {
            shape {
              dim {
                size: 2
              }
            }
          }
        }
      }
      attr {
        key: "dtype"
        value {
          type: DT_INT32
        }
      }
      attr {
        key: "value"
        value {
          tensor {
            dtype: DT_INT32
            tensor_shape {
              dim {
                size: 2
              }
            }
            tensor_content: "\000\001\000\000\006\000\000\000"
          }
        }
      }
    }
    node {
      name: "dense_1/random_uniform/min"
      op: "Const"
      attr {
        key: "_output_shapes"
        value {
          list {
            shape {
            }
          }
        }
      }
      attr {
        key: "dtype"
        value {
          type: DT_FLOAT
        }
      }
      attr {
        key: "value"
        value {
          tensor {
            dtype: DT_FLOAT
            tensor_shape {
            }
            float_val: -0.15132997930049896
          }
        }
      }
    }
    node {
      name: "dense_1/random_uniform/max"
      op: "Const"
      attr {
        key: "_output_shapes"
        value {
          list {
            shape {
            }
          }
        }
      }
      attr {
        key: "dtype"
        value {
          type: DT_FLOAT
        }
      }
      attr {
        key: "value"
        value {
          tensor {
            dtype: DT_FLOAT
            tensor_shape {
            }
            float_val: 0.15132997930049896
          }
        }
      }
    }
    node {
      name: "dense_1/random_uniform/RandomUniform"
      op: "RandomUniform"
      input: "dense_1/random_uniform/shape"
      attr {
        key: "T"
        value {
          type: DT_INT32
        }
      }
      attr {
        key: "_output_shapes"
        value {
          list {
            shape {
              dim {
                size: 256
              }
              dim {
                size: 6
              }
            }
          }
        }
      }
      attr {
        key: "dtype"
        value {
          type: DT_FLOAT
        }
      }
      attr {
        key: "seed"
        value {
          i: 87654321
        }
      }
      attr {
        key: "seed2"
        value {
          i: 5025333
        }
      }
    }
    node {
      name: "dense_1/random_uniform/sub"
      op: "Sub"
      input: "dense_1/random_uniform/max"
      input: "dense_1/random_uniform/min"
      attr {
        key: "T"
        value {
          type: DT_FLOAT
        }
      }
      attr {
        key: "_output_shapes"
        value {
          list {
            shape {
            }
          }
        }
      }
    }
    node {
      name: "dense_1/random_uniform/mul"
      op: "Mul"
      input: "dense_1/random_uniform/RandomUniform"
      input: "dense_1/random_uniform/sub"
      attr {
        key: "T"
        value {
          type: DT_FLOAT
        }
      }
      attr {
        key: "_output_shapes"
        value {
          list {
            shape {
              dim {
                size: 256
              }
              dim {
                size: 6
              }
            }
          }
        }
      }
    }
    node {
      name: "dense_1/random_uniform"
      op: "Add"
      input: "dense_1/random_uniform/mul"
      input: "dense_1/random_uniform/min"
      attr {
        key: "T"
        value {
          type: DT_FLOAT
        }
      }
      attr {
        key: "_output_shapes"
        value {
          list {
            shape {
              dim {
                size: 256
              }
              dim {
                size: 6
              }
            }
          }
        }
      }
    }
    node {
      name: "dense_1/kernel"
      op: "VarHandleOp"
      attr {
        key: "_class"
        value {
          list {
            s: "loc:@dense_1/kernel"
          }
        }
      }
      attr {
        key: "_output_shapes"
        value {
          list {
            shape {
            }
          }
        }
      }
      attr {
        key: "container"
        value {
          s: ""
        }
      }
      attr {
        key: "dtype"
        value {
          type: DT_FLOAT
        }
      }
      attr {
        key: "shape"
        value {
          shape {
            dim {
              size: 256
            }
            dim {
              size: 6
            }
          }
        }
      }
      attr {
        key: "shared_name"
        value {
          s: "dense_1/kernel"
        }
      }
    }
    node {
      name: "dense_1/kernel/IsInitialized/VarIsInitializedOp"
      op: "VarIsInitializedOp"
      input: "dense_1/kernel"
      attr {
        key: "_output_shapes"
        value {
          list {
            shape {
            }
          }
        }
      }
    }
    node {
      name: "dense_1/kernel/Assign"
      op: "AssignVariableOp"
      input: "dense_1/kernel"
      input: "dense_1/random_uniform"
      attr {
        key: "dtype"
        value {
          type: DT_FLOAT
        }
      }
    }
    node {
      name: "dense_1/kernel/Read/ReadVariableOp"
      op: "ReadVariableOp"
      input: "dense_1/kernel"
      attr {
        key: "_output_shapes"
        value {
          list {
            shape {
              dim {
                size: 256
              }
              dim {
                size: 6
              }
            }
          }
        }
      }
      attr {
        key: "dtype"
        value {
          type: DT_FLOAT
        }
      }
    }
    node {
      name: "dense_1/Const"
      op: "Const"
      attr {
        key: "_output_shapes"
        value {
          list {
            shape {
              dim {
                size: 6
              }
            }
          }
        }
      }
      attr {
        key: "dtype"
        value {
          type: DT_FLOAT
        }
      }
      attr {
        key: "value"
        value {
          tensor {
            dtype: DT_FLOAT
            tensor_shape {
              dim {
                size: 6
              }
            }
            float_val: 0.0
          }
        }
      }
    }
    node {
      name: "dense_1/bias"
      op: "VarHandleOp"
      attr {
        key: "_class"
        value {
          list {
            s: "loc:@dense_1/bias"
          }
        }
      }
      attr {
        key: "_output_shapes"
        value {
          list {
            shape {
            }
          }
        }
      }
      attr {
        key: "container"
        value {
          s: ""
        }
      }
      attr {
        key: "dtype"
        value {
          type: DT_FLOAT
        }
      }
      attr {
        key: "shape"
        value {
          shape {
            dim {
              size: 6
            }
          }
        }
      }
      attr {
        key: "shared_name"
        value {
          s: "dense_1/bias"
        }
      }
    }
    node {
      name: "dense_1/bias/IsInitialized/VarIsInitializedOp"
      op: "VarIsInitializedOp"
      input: "dense_1/bias"
      attr {
        key: "_output_shapes"
        value {
          list {
            shape {
            }
          }
        }
      }
    }
    node {
      name: "dense_1/bias/Assign"
      op: "AssignVariableOp"
      input: "dense_1/bias"
      input: "dense_1/Const"
      attr {
        key: "dtype"
        value {
          type: DT_FLOAT
        }
      }
    }
    node {
      name: "dense_1/bias/Read/ReadVariableOp"
      op: "ReadVariableOp"
      input: "dense_1/bias"
      attr {
        key: "_output_shapes"
        value {
          list {
            shape {
              dim {
                size: 6
              }
            }
          }
        }
      }
      attr {
        key: "dtype"
        value {
          type: DT_FLOAT
        }
      }
    }
    node {
      name: "dense_1/MatMul/ReadVariableOp"
      op: "ReadVariableOp"
      input: "dense_1/kernel"
      attr {
        key: "_output_shapes"
        value {
          list {
            shape {
              dim {
                size: 256
              }
              dim {
                size: 6
              }
            }
          }
        }
      }
      attr {
        key: "dtype"
        value {
          type: DT_FLOAT
        }
      }
    }
    node {
      name: "dense_1/MatMul"
      op: "MatMul"
      input: "concatenate_1/concat"
      input: "dense_1/MatMul/ReadVariableOp"
      attr {
        key: "T"
        value {
          type: DT_FLOAT
        }
      }
      attr {
        key: "_output_shapes"
        value {
          list {
            shape {
              dim {
                size: -1
              }
              dim {
                size: 6
              }
            }
          }
        }
      }
      attr {
        key: "transpose_a"
        value {
          b: false
        }
      }
      attr {
        key: "transpose_b"
        value {
          b: false
        }
      }
    }
    node {
      name: "dense_1/BiasAdd/ReadVariableOp"
      op: "ReadVariableOp"
      input: "dense_1/bias"
      attr {
        key: "_output_shapes"
        value {
          list {
            shape {
              dim {
                size: 6
              }
            }
          }
        }
      }
      attr {
        key: "dtype"
        value {
          type: DT_FLOAT
        }
      }
    }
    node {
      name: "dense_1/BiasAdd"
      op: "BiasAdd"
      input: "dense_1/MatMul"
      input: "dense_1/BiasAdd/ReadVariableOp"
      attr {
        key: "T"
        value {
          type: DT_FLOAT
        }
      }
      attr {
        key: "_output_shapes"
        value {
          list {
            shape {
              dim {
                size: -1
              }
              dim {
                size: 6
              }
            }
          }
        }
      }
      attr {
        key: "data_format"
        value {
          s: "NHWC"
        }
      }
    }
    node {
      name: "dense_1/Sigmoid"
      op: "Sigmoid"
      input: "dense_1/BiasAdd"
      attr {
        key: "T"
        value {
          type: DT_FLOAT
        }
      }
      attr {
        key: "_output_shapes"
        value {
          list {
            shape {
              dim {
                size: -1
              }
              dim {
                size: 6
              }
            }
          }
        }
      }
    }
    node {
      name: "Adam/iterations/Initializer/initial_value"
      op: "Const"
      attr {
        key: "_class"
        value {
          list {
            s: "loc:@Adam/iterations"
          }
        }
      }
      attr {
        key: "_output_shapes"
        value {
          list {
            shape {
            }
          }
        }
      }
      attr {
        key: "dtype"
        value {
          type: DT_INT64
        }
      }
      attr {
        key: "value"
        value {
          tensor {
            dtype: DT_INT64
            tensor_shape {
            }
            int64_val: 0
          }
        }
      }
    }
    node {
      name: "Adam/iterations"
      op: "VarHandleOp"
      attr {
        key: "_class"
        value {
          list {
            s: "loc:@Adam/iterations"
          }
        }
      }
      attr {
        key: "_output_shapes"
        value {
          list {
            shape {
            }
          }
        }
      }
      attr {
        key: "container"
        value {
          s: ""
        }
      }
      attr {
        key: "dtype"
        value {
          type: DT_INT64
        }
      }
      attr {
        key: "shape"
        value {
          shape {
          }
        }
      }
      attr {
        key: "shared_name"
        value {
          s: "Adam/iterations"
        }
      }
    }
    node {
      name: "Adam/iterations/IsInitialized/VarIsInitializedOp"
      op: "VarIsInitializedOp"
      input: "Adam/iterations"
      attr {
        key: "_output_shapes"
        value {
          list {
            shape {
            }
          }
        }
      }
    }
    node {
      name: "Adam/iterations/Assign"
      op: "AssignVariableOp"
      input: "Adam/iterations"
      input: "Adam/iterations/Initializer/initial_value"
      attr {
        key: "dtype"
        value {
          type: DT_INT64
        }
      }
    }
    node {
      name: "Adam/iterations/Read/ReadVariableOp"
      op: "ReadVariableOp"
      input: "Adam/iterations"
      attr {
        key: "_output_shapes"
        value {
          list {
            shape {
            }
          }
        }
      }
      attr {
        key: "dtype"
        value {
          type: DT_INT64
        }
      }
    }
    node {
      name: "Adam/learning_rate/Initializer/initial_value"
      op: "Const"
      attr {
        key: "_class"
        value {
          list {
            s: "loc:@Adam/learning_rate"
          }
        }
      }
      attr {
        key: "_output_shapes"
        value {
          list {
            shape {
            }
          }
        }
      }
      attr {
        key: "dtype"
        value {
          type: DT_FLOAT
        }
      }
      attr {
        key: "value"
        value {
          tensor {
            dtype: DT_FLOAT
            tensor_shape {
            }
            float_val: 0.0010000000474974513
          }
        }
      }
    }
    node {
      name: "Adam/learning_rate"
      op: "VarHandleOp"
      attr {
        key: "_class"
        value {
          list {
            s: "loc:@Adam/learning_rate"
          }
        }
      }
      attr {
        key: "_output_shapes"
        value {
          list {
            shape {
            }
          }
        }
      }
      attr {
        key: "container"
        value {
          s: ""
        }
      }
      attr {
        key: "dtype"
        value {
          type: DT_FLOAT
        }
      }
      attr {
        key: "shape"
        value {
          shape {
          }
        }
      }
      attr {
        key: "shared_name"
        value {
          s: "Adam/learning_rate"
        }
      }
    }
    node {
      name: "Adam/learning_rate/IsInitialized/VarIsInitializedOp"
      op: "VarIsInitializedOp"
      input: "Adam/learning_rate"
      attr {
        key: "_output_shapes"
        value {
          list {
            shape {
            }
          }
        }
      }
    }
    node {
      name: "Adam/learning_rate/Assign"
      op: "AssignVariableOp"
      input: "Adam/learning_rate"
      input: "Adam/learning_rate/Initializer/initial_value"
      attr {
        key: "dtype"
        value {
          type: DT_FLOAT
        }
      }
    }
    node {
      name: "Adam/learning_rate/Read/ReadVariableOp"
      op: "ReadVariableOp"
      input: "Adam/learning_rate"
      attr {
        key: "_output_shapes"
        value {
          list {
            shape {
            }
          }
        }
      }
      attr {
        key: "dtype"
        value {
          type: DT_FLOAT
        }
      }
    }
    node {
      name: "Adam/beta_1/Initializer/initial_value"
      op: "Const"
      attr {
        key: "_class"
        value {
          list {
            s: "loc:@Adam/beta_1"
          }
        }
      }
      attr {
        key: "_output_shapes"
        value {
          list {
            shape {
            }
          }
        }
      }
      attr {
        key: "dtype"
        value {
          type: DT_FLOAT
        }
      }
      attr {
        key: "value"
        value {
          tensor {
            dtype: DT_FLOAT
            tensor_shape {
            }
            float_val: 0.8999999761581421
          }
        }
      }
    }
    node {
      name: "Adam/beta_1"
      op: "VarHandleOp"
      attr {
        key: "_class"
        value {
          list {
            s: "loc:@Adam/beta_1"
          }
        }
      }
      attr {
        key: "_output_shapes"
        value {
          list {
            shape {
            }
          }
        }
      }
      attr {
        key: "container"
        value {
          s: ""
        }
      }
      attr {
        key: "dtype"
        value {
          type: DT_FLOAT
        }
      }
      attr {
        key: "shape"
        value {
          shape {
          }
        }
      }
      attr {
        key: "shared_name"
…
      input: "save/Identity_2"
      attr {
        key: "dtype"
        value {
          type: DT_FLOAT
        }
      }
    }
    node {
      name: "save/Identity_3"
      op: "Identity"
      input: "save/RestoreV2:2"
      attr {
        key: "T"
        value {
          type: DT_FLOAT
        }
      }
      attr {
        key: "_output_shapes"
        value {
          list {
            shape {
              unknown_rank: true
            }
          }
        }
      }
    }
    node {
      name: "save/AssignVariableOp_2"
      op: "AssignVariableOp"
      input: "Adam/decay"
      input: "save/Identity_3"
      attr {
        key: "dtype"
        value {
          type: DT_FLOAT
        }
      }
    }
    node {
      name: "save/Identity_4"
      op: "Identity"
      input: "save/RestoreV2:3"
      attr {
        key: "T"
        value {
          type: DT_INT64
        }
      }
      attr {
        key: "_output_shapes"
        value {
          list {
            shape {
              unknown_rank: true
            }
          }
        }
      }
    }
    node {
      name: "save/AssignVariableOp_3"
      op: "AssignVariableOp"
      input: "Adam/iterations"
      input: "save/Identity_4"
      attr {
        key: "dtype"
        value {
          type: DT_INT64
        }
      }
    }
    node {
      name: "save/Identity_5"
      op: "Identity"
      input: "save/RestoreV2:4"
      attr {
        key: "T"
        value {
          type: DT_FLOAT
        }
      }
      attr {
        key: "_output_shapes"
        value {
          list {
            shape {
              unknown_rank: true
            }
          }
        }
      }
    }
    node {
      name: "save/AssignVariableOp_4"
      op: "AssignVariableOp"
      input: "Adam/learning_rate"
      input: "save/Identity_5"
      attr {
        key: "dtype"
        value {
          type: DT_FLOAT
        }
      }
    }
    node {
      name: "save/Identity_6"
      op: "Identity"
      input: "save/RestoreV2:5"
      attr {
        key: "T"
        value {
          type: DT_FLOAT
        }
      }
      attr {
        key: "_output_shapes"
        value {
          list {
            shape {
              unknown_rank: true
            }
          }
        }
      }
    }
    node {
      name: "save/AssignVariableOp_5"
      op: "AssignVariableOp"
      input: "conv1d_1/bias"
      input: "save/Identity_6"
      attr {
        key: "dtype"
        value {
          type: DT_FLOAT
        }
      }
    }
    node {
      name: "save/Identity_7"
      op: "Identity"
      input: "save/RestoreV2:6"
      attr {
        key: "T"
        value {
          type: DT_FLOAT
        }
      }
      attr {
        key: "_output_shapes"
        value {
          list {
            shape {
              unknown_rank: true
            }
          }
        }
      }
    }
    node {
      name: "save/AssignVariableOp_6"
      op: "AssignVariableOp"
      input: "conv1d_1/kernel"
      input: "save/Identity_7"
      attr {
        key: "dtype"
        value {
          type: DT_FLOAT
        }
      }
    }
    node {
      name: "save/Identity_8"
      op: "Identity"
      input: "save/RestoreV2:7"
      attr {
        key: "T"
        value {
          type: DT_FLOAT
        }
      }
      attr {
        key: "_output_shapes"
        value {
          list {
            shape {
              unknown_rank: true
            }
          }
        }
      }
    }
    node {
      name: "save/AssignVariableOp_7"
      op: "AssignVariableOp"
      input: "conv1d_2/bias"
      input: "save/Identity_8"
      attr {
        key: "dtype"
        value {
          type: DT_FLOAT
        }
      }
    }
    node {
      name: "save/Identity_9"
      op: "Identity"
      input: "save/RestoreV2:8"
      attr {
        key: "T"
        value {
          type: DT_FLOAT
        }
      }
      attr {
        key: "_output_shapes"
        value {
          list {
            shape {
              unknown_rank: true
            }
          }
        }
      }
    }
    node {
      name: "save/AssignVariableOp_8"
      op: "AssignVariableOp"
      input: "conv1d_2/kernel"
      input: "save/Identity_9"
      attr {
        key: "dtype"
        value {
          type: DT_FLOAT
        }
      }
    }
    node {
      name: "save/Identity_10"
      op: "Identity"
      input: "save/RestoreV2:9"
      attr {
        key: "T"
        value {
          type: DT_FLOAT
        }
      }
      attr {
        key: "_output_shapes"
        value {
          list {
            shape {
              unknown_rank: true
            }
          }
        }
      }
    }
    node {
      name: "save/AssignVariableOp_9"
      op: "AssignVariableOp"
      input: "conv1d_3/bias"
      input: "save/Identity_10"
      attr {
        key: "dtype"
        value {
          type: DT_FLOAT
        }
      }
    }
    node {
      name: "save/Identity_11"
      op: "Identity"
      input: "save/RestoreV2:10"
      attr {
        key: "T"
        value {
          type: DT_FLOAT
        }
      }
      attr {
        key: "_output_shapes"
        value {
          list {
            shape {
              unknown_rank: true
            }
          }
        }
      }
    }
    node {
      name: "save/AssignVariableOp_10"
      op: "AssignVariableOp"
      input: "conv1d_3/kernel"
      input: "save/Identity_11"
      attr {
        key: "dtype"
        value {
          type: DT_FLOAT
        }
      }
    }
    node {
      name: "save/Identity_12"
      op: "Identity"
      input: "save/RestoreV2:11"
      attr {
        key: "T"
        value {
          type: DT_FLOAT
        }
      }
      attr {
        key: "_output_shapes"
        value {
          list {
            shape {
              unknown_rank: true
            }
          }
        }
      }
    }
    node {
      name: "save/AssignVariableOp_11"
      op: "AssignVariableOp"
      input: "conv1d_4/bias"
      input: "save/Identity_12"
      attr {
        key: "dtype"
        value {
          type: DT_FLOAT
        }
      }
    }
    node {
      name: "save/Identity_13"
      op: "Identity"
      input: "save/RestoreV2:12"
      attr {
        key: "T"
        value {
          type: DT_FLOAT
        }
      }
      attr {
        key: "_output_shapes"
        value {
          list {
            shape {
              unknown_rank: true
            }
          }
        }
      }
    }
    node {
      name: "save/AssignVariableOp_12"
      op: "AssignVariableOp"
      input: "conv1d_4/kernel"
      input: "save/Identity_13"
      attr {
        key: "dtype"
        value {
          type: DT_FLOAT
        }
      }
    }
    node {
      name: "save/Identity_14"
      op: "Identity"
      input: "save/RestoreV2:13"
      attr {
        key: "T"
        value {
          type: DT_FLOAT
        }
      }
      attr {
        key: "_output_shapes"
        value {
          list {
            shape {
              unknown_rank: true
            }
          }
        }
      }
    }
    node {
      name: "save/AssignVariableOp_13"
      op: "AssignVariableOp"
      input: "count"
      input: "save/Identity_14"
      attr {
        key: "dtype"
        value {
          type: DT_FLOAT
        }
      }
    }
    node {
      name: "save/Identity_15"
      op: "Identity"
      input: "save/RestoreV2:14"
      attr {
        key: "T"
        value {
          type: DT_FLOAT
        }
      }
      attr {
        key: "_output_shapes"
        value {
          list {
            shape {
              unknown_rank: true
            }
          }
        }
      }
    }
    node {
      name: "save/AssignVariableOp_14"
      op: "AssignVariableOp"
      input: "dense_1/bias"
      input: "save/Identity_15"
      attr {
        key: "dtype"
        value {
          type: DT_FLOAT
        }
      }
    }
    node {
      name: "save/Identity_16"
      op: "Identity"
      input: "save/RestoreV2:15"
      attr {
        key: "T"
        value {
          type: DT_FLOAT
        }
      }
      attr {
        key: "_output_shapes"
        value {
          list {
            shape {
              unknown_rank: true
            }
          }
        }
      }
    }
    node {
      name: "save/AssignVariableOp_15"
      op: "AssignVariableOp"
      input: "dense_1/kernel"
      input: "save/Identity_16"
      attr {
        key: "dtype"
        value {
          type: DT_FLOAT
        }
      }
    }
    node {
      name: "save/Identity_17"
      op: "Identity"
      input: "save/RestoreV2:16"
      attr {
        key: "T"
        value {
          type: DT_FLOAT
        }
      }
      attr {
        key: "_output_shapes"
        value {
          list {
            shape {
              unknown_rank: true
            }
          }
        }
      }
    }
    node {
      name: "save/AssignVariableOp_16"
      op: "AssignVariableOp"
      input: "embedding_1/embeddings"
      input: "save/Identity_17"
      attr {
        key: "dtype"
        value {
          type: DT_FLOAT
        }
      }
    }
    node {
      name: "save/Identity_18"
      op: "Identity"
      input: "save/RestoreV2:17"
      attr {
        key: "T"
        value {
          type: DT_FLOAT
        }
      }
      attr {
        key: "_output_shapes"
        value {
          list {
            shape {
              unknown_rank: true
            }
          }
        }
      }
    }
    node {
      name: "save/AssignVariableOp_17"
      op: "AssignVariableOp"
      input: "total"
      input: "save/Identity_18"
      attr {
        key: "dtype"
        value {
          type: DT_FLOAT
        }
      }
    }
    node {
      name: "save/Identity_19"
      op: "Identity"
      input: "save/RestoreV2:18"
      attr {
        key: "T"
        value {
          type: DT_FLOAT
        }
      }
      attr {
        key: "_output_shapes"
        value {
          list {
            shape {
              unknown_rank: true
            }
          }
        }
      }
    }
    node {
      name: "save/AssignVariableOp_18"
      op: "AssignVariableOp"
      input: "training/Adam/m_0_1"
      input: "save/Identity_19"
      attr {
        key: "dtype"
        value {
          type: DT_FLOAT
        }
      }
    }
    node {
      name: "save/Identity_20"
      op: "Identity"
      input: "save/RestoreV2:19"
      attr {
        key: "T"
        value {
          type: DT_FLOAT
        }
      }
      attr {
        key: "_output_shapes"
        value {
          list {
            shape {
              unknown_rank: true
            }
          }
        }
      }
    }
    node {
      name: "save/AssignVariableOp_19"
      op: "AssignVariableOp"
      input: "training/Adam/m_10_1"
      input: "save/Identity_20"
      attr {
        key: "dtype"
        value {
          type: DT_FLOAT
        }
      }
    }
    node {
      name: "save/Identity_21"
      op: "Identity"
      input: "save/RestoreV2:20"
      attr {
        key: "T"
        value {
          type: DT_FLOAT
        }
      }
      attr {
        key: "_output_shapes"
        value {
          list {
            shape {
              unknown_rank: true
            }
          }
        }
      }
    }
    node {
      name: "save/AssignVariableOp_20"
      op: "AssignVariableOp"
      input: "training/Adam/m_1_1"
      input: "save/Identity_21"
      attr {
        key: "dtype"
        value {
          type: DT_FLOAT
        }
      }
    }
    node {
      name: "save/Identity_22"
      op: "Identity"
      input: "save/RestoreV2:21"
      attr {
        key: "T"
        value {
          type: DT_FLOAT
        }
      }
      attr {
        key: "_output_shapes"
        value {
          list {
            shape {
              unknown_rank: true
            }
          }
        }
      }
    }
    node {
      name: "save/AssignVariableOp_21"
      op: "AssignVariableOp"
      input: "training/Adam/m_2_1"
      input: "save/Identity_22"
      attr {
        key: "dtype"
        value {
          type: DT_FLOAT
        }
      }
    }
    node {
      name: "save/Identity_23"
      op: "Identity"
      input: "save/RestoreV2:22"
      attr {
        key: "T"
        value {
          type: DT_FLOAT
        }
      }
      attr {
        key: "_output_shapes"
        value {
          list {
            shape {
              unknown_rank: true
            }
          }
        }
      }
    }
    node {
      name: "save/AssignVariableOp_22"
      op: "AssignVariableOp"
      input: "training/Adam/m_3_1"
      input: "save/Identity_23"
      attr {
        key: "dtype"
        value {
          type: DT_FLOAT
        }
      }
    }
    node {
      name: "save/Identity_24"
      op: "Identity"
      input: "save/RestoreV2:23"
      attr {
        key: "T"
        value {
          type: DT_FLOAT
        }
      }
      attr {
        key: "_output_shapes"
        value {
          list {
            shape {
              unknown_rank: true
            }
          }
        }
      }
    }
    node {
      name: "save/AssignVariableOp_23"
      op: "AssignVariableOp"
      input: "training/Adam/m_4_1"
      input: "save/Identity_24"
      attr {
        key: "dtype"
        value {
          type: DT_FLOAT
        }
      }
    }
    node {
      name: "save/Identity_25"
      op: "Identity"
      input: "save/RestoreV2:24"
      attr {
        key: "T"
        value {
          type: DT_FLOAT
        }
      }
      attr {
        key: "_output_shapes"
        value {
          list {
            shape {
              unknown_rank: true
            }
          }
        }
      }
    }
    node {
      name: "save/AssignVariableOp_24"
      op: "AssignVariableOp"
      input: "training/Adam/m_5_1"
      input: "save/Identity_25"
      attr {
        key: "dtype"
        value {
          type: DT_FLOAT
        }
      }
    }
    node {
      name: "save/Identity_26"
      op: "Identity"
      input: "save/RestoreV2:25"
      attr {
        key: "T"
        value {
          type: DT_FLOAT
        }
      }
      attr {
        key: "_output_shapes"
        value {
          list {
            shape {
              unknown_rank: true
            }
          }
        }
      }
    }
    node {
      name: "save/AssignVariableOp_25"
      op: "AssignVariableOp"
      input: "training/Adam/m_6_1"
      input: "save/Identity_26"
      attr {
        key: "dtype"
        value {
          type: DT_FLOAT
        }
      }
    }
    node {
      name: "save/Identity_27"
      op: "Identity"
      input: "save/RestoreV2:26"
      attr {
        key: "T"
        value {
          type: DT_FLOAT
        }
      }
      attr {
        key: "_output_shapes"
        value {
          list {
            shape {
              unknown_rank: true
            }
          }
        }
      }
    }
    node {
      name: "save/AssignVariableOp_26"
      op: "AssignVariableOp"
      input: "training/Adam/m_7_1"
      input: "save/Identity_27"
      attr {
        key: "dtype"
        value {
          type: DT_FLOAT
        }
      }
    }
    node {
      name: "save/Identity_28"
      op: "Identity"
      input: "save/RestoreV2:27"
      attr {
        key: "T"
        value {
          type: DT_FLOAT
        }
      }
      attr {
        key: "_output_shapes"
        value {
          list {
            shape {
              unknown_rank: true
            }
          }
        }
      }
    }
    node {
      name: "save/AssignVariableOp_27"
      op: "AssignVariableOp"
      input: "training/Adam/m_8_1"
      input: "save/Identity_28"
      attr {
        key: "dtype"
        value {
          type: DT_FLOAT
        }
      }
    }
    node {
      name: "save/Identity_29"
      op: "Identity"
      input: "save/RestoreV2:28"
      attr {
        key: "T"
        value {
          type: DT_FLOAT
        }
      }
      attr {
        key: "_output_shapes"
        value {
          list {
            shape {
              unknown_rank: true
            }
          }
        }
      }
    }
    node {
      name: "save/AssignVariableOp_28"
      op: "AssignVariableOp"
      input: "training/Adam/m_9_1"
      input: "save/Identity_29"
      attr {
        key: "dtype"
        value {
          type: DT_FLOAT
        }
      }
    }
    node {
      name: "save/Identity_30"
      op: "Identity"
      input: "save/RestoreV2:29"
      attr {
        key: "T"
        value {
          type: DT_FLOAT
        }
      }
      attr {
        key: "_output_shapes"
        value {
          list {
            shape {
              unknown_rank: true
            }
          }
        }
      }
    }
    node {
      name: "save/AssignVariableOp_29"
      op: "AssignVariableOp"
      input: "training/Adam/v_0_1"
      input: "save/Identity_30"
      attr {
        key: "dtype"
        value {
          type: DT_FLOAT
        }
      }
    }
    node {
      name: "save/Identity_31"
      op: "Identity"
      input: "save/RestoreV2:30"
      attr {
        key: "T"
        value {
          type: DT_FLOAT
        }
      }
      attr {
        key: "_output_shapes"
        value {
          list {
            shape {
              unknown_rank: true
            }
          }
        }
      }
    }
    node {
      name: "save/AssignVariableOp_30"
      op: "AssignVariableOp"
      input: "training/Adam/v_10_1"
      input: "save/Identity_31"
      attr {
        key: "dtype"
        value {
          type: DT_FLOAT
        }
      }
    }
    node {
      name: "save/Identity_32"
      op: "Identity"
      input: "save/RestoreV2:31"
      attr {
        key: "T"
        value {
          type: DT_FLOAT
        }
      }
      attr {
        key: "_output_shapes"
        value {
          list {
            shape {
              unknown_rank: true
            }
          }
        }
      }
    }
    node {
      name: "save/AssignVariableOp_31"
      op: "AssignVariableOp"
      input: "training/Adam/v_1_1"
      input: "save/Identity_32"
      attr {
        key: "dtype"
        value {
          type: DT_FLOAT
        }
      }
    }
    node {
      name: "save/Identity_33"
      op: "Identity"
      input: "save/RestoreV2:32"
      attr {
        key: "T"
        value {
          type: DT_FLOAT
        }
      }
      attr {
        key: "_output_shapes"
        value {
          list {
            shape {
              unknown_rank: true
            }
          }
        }
      }
    }
    node {
      name: "save/AssignVariableOp_32"
      op: "AssignVariableOp"
      input: "training/Adam/v_2_1"
      input: "save/Identity_33"
      attr {
        key: "dtype"
        value {
          type: DT_FLOAT
        }
      }
    }
    node {
      name: "save/Identity_34"
      op: "Identity"
      input: "save/RestoreV2:33"
      attr {
        key: "T"
        value {
          type: DT_FLOAT
        }
      }
      attr {
        key: "_output_shapes"
        value {
          list {
            shape {
              unknown_rank: true
            }
          }
        }
      }
    }
    node {
      name: "save/AssignVariableOp_33"
      op: "AssignVariableOp"
      input: "training/Adam/v_3_1"
      input: "save/Identity_34"
      attr {
        key: "dtype"
        value {
          type: DT_FLOAT
        }
      }
    }
    node {
      name: "save/Identity_35"
      op: "Identity"
      input: "save/RestoreV2:34"
      attr {
        key: "T"
        value {
          type: DT_FLOAT
        }
      }
      attr {
        key: "_output_shapes"
        value {
          list {
            shape {
              unknown_rank: true
            }
          }
        }
      }
    }
    node {
      name: "save/AssignVariableOp_34"
      op: "AssignVariableOp"
      input: "training/Adam/v_4_1"
      input: "save/Identity_35"
      attr {
        key: "dtype"
        value {
          type: DT_FLOAT
        }
      }
    }
    node {
      name: "save/Identity_36"
      op: "Identity"
      input: "save/RestoreV2:35"
      attr {
        key: "T"
        value {
          type: DT_FLOAT
        }
      }
      attr {
        key: "_output_shapes"
        value {
          list {
            shape {
              unknown_rank: true
            }
          }
        }
      }
    }
    node {
      name: "save/AssignVariableOp_35"
      op: "AssignVariableOp"
      input: "training/Adam/v_5_1"
      input: "save/Identity_36"
      attr {
        key: "dtype"
        value {
          type: DT_FLOAT
        }
      }
    }
    node {
      name: "save/Identity_37"
      op: "Identity"
      input: "save/RestoreV2:36"
      attr {
        key: "T"
        value {
          type: DT_FLOAT
        }
      }
      attr {
        key: "_output_shapes"
        value {
          list {
            shape {
              unknown_rank: true
            }
          }
        }
      }
    }
    node {
      name: "save/AssignVariableOp_36"
      op: "AssignVariableOp"
      input: "training/Adam/v_6_1"
      input: "save/Identity_37"
      attr {
        key: "dtype"
        value {
          type: DT_FLOAT
        }
      }
    }
    node {
      name: "save/Identity_38"
      op: "Identity"
      input: "save/RestoreV2:37"
      attr {
        key: "T"
        value {
          type: DT_FLOAT
        }
      }
      attr {
        key: "_output_shapes"
        value {
          list {
            shape {
              unknown_rank: true
            }
          }
        }
      }
    }
    node {
      name: "save/AssignVariableOp_37"
      op: "AssignVariableOp"
      input: "training/Adam/v_7_1"
      input: "save/Identity_38"
      attr {
        key: "dtype"
        value {
          type: DT_FLOAT
        }
      }
    }
    node {
      name: "save/Identity_39"
      op: "Identity"
      input: "save/RestoreV2:38"
      attr {
        key: "T"
        value {
          type: DT_FLOAT
        }
      }
      attr {
        key: "_output_shapes"
        value {
          list {
            shape {
              unknown_rank: true
            }
          }
        }
      }
    }
    node {
      name: "save/AssignVariableOp_38"
      op: "AssignVariableOp"
      input: "training/Adam/v_8_1"
      input: "save/Identity_39"
      attr {
        key: "dtype"
        value {
          type: DT_FLOAT
        }
      }
    }
    node {
      name: "save/Identity_40"
      op: "Identity"
      input: "save/RestoreV2:39"
      attr {
        key: "T"
        value {
          type: DT_FLOAT
        }
      }
      attr {
        key: "_output_shapes"
        value {
          list {
            shape {
              unknown_rank: true
            }
          }
        }
      }
    }
    node {
      name: "save/AssignVariableOp_39"
      op: "AssignVariableOp"
      input: "training/Adam/v_9_1"
      input: "save/Identity_40"
      attr {
        key: "dtype"
        value {
          type: DT_FLOAT
        }
      }
    }
    node {
      name: "save/Identity_41"
      op: "Identity"
      input: "save/RestoreV2:40"
      attr {
        key: "T"
        value {
          type: DT_FLOAT
        }
      }
      attr {
        key: "_output_shapes"
        value {
          list {
            shape {
              unknown_rank: true
            }
          }
        }
      }
    }
    node {
      name: "save/AssignVariableOp_40"
      op: "AssignVariableOp"
      input: "training/Adam/vhat_0_1"
      input: "save/Identity_41"
      attr {
        key: "dtype"
        value {
          type: DT_FLOAT
        }
      }
    }
    node {
      name: "save/Identity_42"
      op: "Identity"
      input: "save/RestoreV2:41"
      attr {
        key: "T"
        value {
          type: DT_FLOAT
        }
      }
      attr {
        key: "_output_shapes"
        value {
          list {
            shape {
              unknown_rank: true
            }
          }
        }
      }
    }
    node {
      name: "save/AssignVariableOp_41"
      op: "AssignVariableOp"
      input: "training/Adam/vhat_10_1"
      input: "save/Identity_42"
      attr {
        key: "dtype"
        value {
          type: DT_FLOAT
        }
      }
    }
    node {
      name: "save/Identity_43"
      op: "Identity"
      input: "save/RestoreV2:42"
      attr {
        key: "T"
        value {
          type: DT_FLOAT
        }
      }
      attr {
        key: "_output_shapes"
        value {
          list {
            shape {
              unknown_rank: true
            }
          }
        }
      }
    }
    node {
      name: "save/AssignVariableOp_42"
      op: "AssignVariableOp"
      input: "training/Adam/vhat_1_1"
      input: "save/Identity_43"
      attr {
        key: "dtype"
        value {
          type: DT_FLOAT
        }
      }
    }
    node {
      name: "save/Identity_44"
      op: "Identity"
      input: "save/RestoreV2:43"
      attr {
        key: "T"
        value {
          type: DT_FLOAT
        }
      }
      attr {
        key: "_output_shapes"
        value {
          list {
            shape {
              unknown_rank: true
            }
          }
        }
      }
    }
    node {
      name: "save/AssignVariableOp_43"
      op: "AssignVariableOp"
      input: "training/Adam/vhat_2_1"
      input: "save/Identity_44"
      attr {
        key: "dtype"
        value {
          type: DT_FLOAT
        }
      }
    }
    node {
      name: "save/Identity_45"
      op: "Identity"
      input: "save/RestoreV2:44"
      attr {
        key: "T"
        value {
          type: DT_FLOAT
        }
      }
      attr {
        key: "_output_shapes"
        value {
          list {
            shape {
              unknown_rank: true
            }
          }
        }
      }
    }
    node {
      name: "save/AssignVariableOp_44"
      op: "AssignVariableOp"
      input: "training/Adam/vhat_3_1"
      input: "save/Identity_45"
      attr {
        key: "dtype"
        value {
          type: DT_FLOAT
        }
      }
    }
    node {
      name: "save/Identity_46"
      op: "Identity"
      input: "save/RestoreV2:45"
      attr {
        key: "T"
        value {
          type: DT_FLOAT
        }
      }
      attr {
        key: "_output_shapes"
        value {
          list {
            shape {
              unknown_rank: true
            }
          }
        }
      }
    }
    node {
      name: "save/AssignVariableOp_45"
      op: "AssignVariableOp"
      input: "training/Adam/vhat_4_1"
      input: "save/Identity_46"
      attr {
        key: "dtype"
        value {
          type: DT_FLOAT
        }
      }
    }
    node {
      name: "save/Identity_47"
      op: "Identity"
      input: "save/RestoreV2:46"
      attr {
        key: "T"
        value {
          type: DT_FLOAT
        }
      }
      attr {
        key: "_output_shapes"
        value {
          list {
            shape {
              unknown_rank: true
            }
          }
        }
      }
    }
    node {
      name: "save/AssignVariableOp_46"
      op: "AssignVariableOp"
      input: "training/Adam/vhat_5_1"
      input: "save/Identity_47"
      attr {
        key: "dtype"
        value {
          type: DT_FLOAT
        }
      }
    }
    node {
      name: "save/Identity_48"
      op: "Identity"
      input: "save/RestoreV2:47"
      attr {
        key: "T"
        value {
          type: DT_FLOAT
        }
      }
      attr {
        key: "_output_shapes"
        value {
          list {
            shape {
              unknown_rank: true
            }
          }
        }
      }
    }
    node {
      name: "save/AssignVariableOp_47"
      op: "AssignVariableOp"
      input: "training/Adam/vhat_6_1"
      input: "save/Identity_48"
      attr {
        key: "dtype"
        value {
          type: DT_FLOAT
        }
      }
    }
    node {
      name: "save/Identity_49"
      op: "Identity"
      input: "save/RestoreV2:48"
      attr {
        key: "T"
        value {
          type: DT_FLOAT
        }
      }
      attr {
        key: "_output_shapes"
        value {
          list {
            shape {
              unknown_rank: true
            }
          }
        }
      }
    }
    node {
      name: "save/AssignVariableOp_48"
      op: "AssignVariableOp"
      input: "training/Adam/vhat_7_1"
      input: "save/Identity_49"
      attr {
        key: "dtype"
        value {
          type: DT_FLOAT
        }
      }
    }
    node {
      name: "save/Identity_50"
      op: "Identity"
      input: "save/RestoreV2:49"
      attr {
        key: "T"
        value {
          type: DT_FLOAT
        }
      }
      attr {
        key: "_output_shapes"
        value {
          list {
            shape {
              unknown_rank: true
            }
          }
        }
      }
    }
    node {
      name: "save/AssignVariableOp_49"
      op: "AssignVariableOp"
      input: "training/Adam/vhat_8_1"
      input: "save/Identity_50"
      attr {
        key: "dtype"
        value {
          type: DT_FLOAT
        }
      }
    }
    node {
      name: "save/Identity_51"
      op: "Identity"
      input: "save/RestoreV2:50"
      attr {
        key: "T"
        value {
          type: DT_FLOAT
        }
      }
      attr {
        key: "_output_shapes"
        value {
          list {
            shape {
              unknown_rank: true
            }
          }
        }
      }
    }
    node {
      name: "save/AssignVariableOp_50"
      op: "AssignVariableOp"
      input: "training/Adam/vhat_9_1"
      input: "save/Identity_51"
      attr {
        key: "dtype"
        value {
          type: DT_FLOAT
        }
      }
    }
    node {
      name: "save/restore_shard"
      op: "NoOp"
      input: "^save/AssignVariableOp"
      input: "^save/AssignVariableOp_1"
      input: "^save/AssignVariableOp_10"
      input: "^save/AssignVariableOp_11"
      input: "^save/AssignVariableOp_12"
      input: "^save/AssignVariableOp_13"
      input: "^save/AssignVariableOp_14"
      input: "^save/AssignVariableOp_15"
      input: "^save/AssignVariableOp_16"
      input: "^save/AssignVariableOp_17"
      input: "^save/AssignVariableOp_18"
      input: "^save/AssignVariableOp_19"
      input: "^save/AssignVariableOp_2"
      input: "^save/AssignVariableOp_20"
      input: "^save/AssignVariableOp_21"
      input: "^save/AssignVariableOp_22"
      input: "^save/AssignVariableOp_23"
      input: "^save/AssignVariableOp_24"
      input: "^save/AssignVariableOp_25"
      input: "^save/AssignVariableOp_26"
      input: "^save/AssignVariableOp_27"
      input: "^save/AssignVariableOp_28"
      input: "^save/AssignVariableOp_29"
      input: "^save/AssignVariableOp_3"
      input: "^save/AssignVariableOp_30"
      input: "^save/AssignVariableOp_31"
      input: "^save/AssignVariableOp_32"
      input: "^save/AssignVariableOp_33"
      input: "^save/AssignVariableOp_34"
      input: "^save/AssignVariableOp_35"
      input: "^save/AssignVariableOp_36"
      input: "^save/AssignVariableOp_37"
      input: "^save/AssignVariableOp_38"
      input: "^save/AssignVariableOp_39"
      input: "^save/AssignVariableOp_4"
      input: "^save/AssignVariableOp_40"
      input: "^save/AssignVariableOp_41"
      input: "^save/AssignVariableOp_42"
      input: "^save/AssignVariableOp_43"
      input: "^save/AssignVariableOp_44"
      input: "^save/AssignVariableOp_45"
      input: "^save/AssignVariableOp_46"
      input: "^save/AssignVariableOp_47"
      input: "^save/AssignVariableOp_48"
      input: "^save/AssignVariableOp_49"
      input: "^save/AssignVariableOp_5"
      input: "^save/AssignVariableOp_50"
      input: "^save/AssignVariableOp_6"
      input: "^save/AssignVariableOp_7"
      input: "^save/AssignVariableOp_8"
      input: "^save/AssignVariableOp_9"
    }
    node {
      name: "save/restore_all"
      op: "NoOp"
      input: "^save/restore_shard"
    }
    versions {
      producer: 134
    }
  }
  saver_def {
    filename_tensor_name: "save/Const:0"
    save_tensor_name: "save/Identity:0"
    restore_op_name: "save/restore_all"
    max_to_keep: 5
    sharded: true
    keep_checkpoint_every_n_hours: 10000.0
    version: V2
  }
  collection_def {
    key: "trainable_variables"
    value {
      bytes_list {
        value: "\n\030embedding_1/embeddings:0\022\035embedding_1/embeddings/Assign\032,embedding_1/embeddings/Read/ReadVariableOp:0(\0012\034embedding_1/random_uniform:08\001"
        value: "\n\021conv1d_1/kernel:0\022\026conv1d_1/kernel/Assign\032%conv1d_1/kernel/Read/ReadVariableOp:0(\0012\031conv1d_1/random_uniform:08\001"
        value: "\n\017conv1d_1/bias:0\022\024conv1d_1/bias/Assign\032#conv1d_1/bias/Read/ReadVariableOp:0(\0012\020conv1d_1/Const:08\001"
        value: "\n\021conv1d_2/kernel:0\022\026conv1d_2/kernel/Assign\032%conv1d_2/kernel/Read/ReadVariableOp:0(\0012\031conv1d_2/random_uniform:08\001"
        value: "\n\017conv1d_2/bias:0\022\024conv1d_2/bias/Assign\032#conv1d_2/bias/Read/ReadVariableOp:0(\0012\020conv1d_2/Const:08\001"
        value: "\n\021conv1d_3/kernel:0\022\026conv1d_3/kernel/Assign\032%conv1d_3/kernel/Read/ReadVariableOp:0(\0012\031conv1d_3/random_uniform:08\001"
        value: "\n\017conv1d_3/bias:0\022\024conv1d_3/bias/Assign\032#conv1d_3/bias/Read/ReadVariableOp:0(\0012\020conv1d_3/Const:08\001"
        value: "\n\021conv1d_4/kernel:0\022\026conv1d_4/kernel/Assign\032%conv1d_4/kernel/Read/ReadVariableOp:0(\0012\031conv1d_4/random_uniform:08\001"
        value: "\n\017conv1d_4/bias:0\022\024conv1d_4/bias/Assign\032#conv1d_4/bias/Read/ReadVariableOp:0(\0012\020conv1d_4/Const:08\001"
        value: "\n\020dense_1/kernel:0\022\025dense_1/kernel/Assign\032$dense_1/kernel/Read/ReadVariableOp:0(\0012\030dense_1/random_uniform:08\001"
        value: "\n\016dense_1/bias:0\022\023dense_1/bias/Assign\032\"dense_1/bias/Read/ReadVariableOp:0(\0012\017dense_1/Const:08\001"
        value: "\n\021Adam/iterations:0\022\026Adam/iterations/Assign\032%Adam/iterations/Read/ReadVariableOp:0(\0012+Adam/iterations/Initializer/initial_value:08\001"
        value: "\n\024Adam/learning_rate:0\022\031Adam/learning_rate/Assign\032(Adam/learning_rate/Read/ReadVariableOp:0(\0012.Adam/learning_rate/Initializer/initial_value:08\001"
        value: "\n\rAdam/beta_1:0\022\022Adam/beta_1/Assign\032!Adam/beta_1/Read/ReadVariableOp:0(\0012\'Adam/beta_1/Initializer/initial_value:08\001"
        value: "\n\rAdam/beta_2:0\022\022Adam/beta_2/Assign\032!Adam/beta_2/Read/ReadVariableOp:0(\0012\'Adam/beta_2/Initializer/initial_value:08\001"
        value: "\n\014Adam/decay:0\022\021Adam/decay/Assign\032 Adam/decay/Read/ReadVariableOp:0(\0012&Adam/decay/Initializer/initial_value:08\001"
        value: "\n\007total:0\022\014total/Assign\032\033total/Read/ReadVariableOp:0(\0012\007Const:08\001"
        value: "\n\007count:0\022\014count/Assign\032\033count/Read/ReadVariableOp:0(\0012\tConst_1:08\001"
        value: "\n\025training/Adam/m_0_1:0\022\032training/Adam/m_0_1/Assign\032)training/Adam/m_0_1/Read/ReadVariableOp:0(\0012\023training/Adam/m_0:08\001"
        value: "\n\025training/Adam/m_1_1:0\022\032training/Adam/m_1_1/Assign\032)training/Adam/m_1_1/Read/ReadVariableOp:0(\0012\023training/Adam/m_1:08\001"
        value: "\n\025training/Adam/m_2_1:0\022\032training/Adam/m_2_1/Assign\032)training/Adam/m_2_1/Read/ReadVariableOp:0(\0012\023training/Adam/m_2:08\001"
        value: "\n\025training/Adam/m_3_1:0\022\032training/Adam/m_3_1/Assign\032)training/Adam/m_3_1/Read/ReadVariableOp:0(\0012\023training/Adam/m_3:08\001"
        value: "\n\025training/Adam/m_4_1:0\022\032training/Adam/m_4_1/Assign\032)training/Adam/m_4_1/Read/ReadVariableOp:0(\0012\023training/Adam/m_4:08\001"
        value: "\n\025training/Adam/m_5_1:0\022\032training/Adam/m_5_1/Assign\032)training/Adam/m_5_1/Read/ReadVariableOp:0(\0012\023training/Adam/m_5:08\001"
        value: "\n\025training/Adam/m_6_1:0\022\032training/Adam/m_6_1/Assign\032)training/Adam/m_6_1/Read/ReadVariableOp:0(\0012\023training/Adam/m_6:08\001"
        value: "\n\025training/Adam/m_7_1:0\022\032training/Adam/m_7_1/Assign\032)training/Adam/m_7_1/Read/ReadVariableOp:0(\0012\023training/Adam/m_7:08\001"
        value: "\n\025training/Adam/m_8_1:0\022\032training/Adam/m_8_1/Assign\032)training/Adam/m_8_1/Read/ReadVariableOp:0(\0012\023training/Adam/m_8:08\001"
        value: "\n\025training/Adam/m_9_1:0\022\032training/Adam/m_9_1/Assign\032)training/Adam/m_9_1/Read/ReadVariableOp:0(\0012\023training/Adam/m_9:08\001"
        value: "\n\026training/Adam/m_10_1:0\022\033training/Adam/m_10_1/Assign\032*training/Adam/m_10_1/Read/ReadVariableOp:0(\0012\024training/Adam/m_10:08\001"
        value: "\n\025training/Adam/v_0_1:0\022\032training/Adam/v_0_1/Assign\032)training/Adam/v_0_1/Read/ReadVariableOp:0(\0012\023training/Adam/v_0:08\001"
        value: "\n\025training/Adam/v_1_1:0\022\032training/Adam/v_1_1/Assign\032)training/Adam/v_1_1/Read/ReadVariableOp:0(\0012\023training/Adam/v_1:08\001"
        value: "\n\025training/Adam/v_2_1:0\022\032training/Adam/v_2_1/Assign\032)training/Adam/v_2_1/Read/ReadVariableOp:0(\0012\023training/Adam/v_2:08\001"
        value: "\n\025training/Adam/v_3_1:0\022\032training/Adam/v_3_1/Assign\032)training/Adam/v_3_1/Read/ReadVariableOp:0(\0012\023training/Adam/v_3:08\001"
        value: "\n\025training/Adam/v_4_1:0\022\032training/Adam/v_4_1/Assign\032)training/Adam/v_4_1/Read/ReadVariableOp:0(\0012\023training/Adam/v_4:08\001"
        value: "\n\025training/Adam/v_5_1:0\022\032training/Adam/v_5_1/Assign\032)training/Adam/v_5_1/Read/ReadVariableOp:0(\0012\023training/Adam/v_5:08\001"
        value: "\n\025training/Adam/v_6_1:0\022\032training/Adam/v_6_1/Assign\032)training/Adam/v_6_1/Read/ReadVariableOp:0(\0012\023training/Adam/v_6:08\001"
        value: "\n\025training/Adam/v_7_1:0\022\032training/Adam/v_7_1/Assign\032)training/Adam/v_7_1/Read/ReadVariableOp:0(\0012\023training/Adam/v_7:08\001"
        value: "\n\025training/Adam/v_8_1:0\022\032training/Adam/v_8_1/Assign\032)training/Adam/v_8_1/Read/ReadVariableOp:0(\0012\023training/Adam/v_8:08\001"
        value: "\n\025training/Adam/v_9_1:0\022\032training/Adam/v_9_1/Assign\032)training/Adam/v_9_1/Read/ReadVariableOp:0(\0012\023training/Adam/v_9:08\001"
        value: "\n\026training/Adam/v_10_1:0\022\033training/Adam/v_10_1/Assign\032*training/Adam/v_10_1/Read/ReadVariableOp:0(\0012\024training/Adam/v_10:08\001"
        value: "\n\030training/Adam/vhat_0_1:0\022\035training/Adam/vhat_0_1/Assign\032,training/Adam/vhat_0_1/Read/ReadVariableOp:0(\0012\026training/Adam/vhat_0:08\001"
        value: "\n\030training/Adam/vhat_1_1:0\022\035training/Adam/vhat_1_1/Assign\032,training/Adam/vhat_1_1/Read/ReadVariableOp:0(\0012\026training/Adam/vhat_1:08\001"
        value: "\n\030training/Adam/vhat_2_1:0\022\035training/Adam/vhat_2_1/Assign\032,training/Adam/vhat_2_1/Read/ReadVariableOp:0(\0012\026training/Adam/vhat_2:08\001"
        value: "\n\030training/Adam/vhat_3_1:0\022\035training/Adam/vhat_3_1/Assign\032,training/Adam/vhat_3_1/Read/ReadVariableOp:0(\0012\026training/Adam/vhat_3:08\001"
        value: "\n\030training/Adam/vhat_4_1:0\022\035training/Adam/vhat_4_1/Assign\032,training/Adam/vhat_4_1/Read/ReadVariableOp:0(\0012\026training/Adam/vhat_4:08\001"
        value: "\n\030training/Adam/vhat_5_1:0\022\035training/Adam/vhat_5_1/Assign\032,training/Adam/vhat_5_1/Read/ReadVariableOp:0(\0012\026training/Adam/vhat_5:08\001"
        value: "\n\030training/Adam/vhat_6_1:0\022\035training/Adam/vhat_6_1/Assign\032,training/Adam/vhat_6_1/Read/ReadVariableOp:0(\0012\026training/Adam/vhat_6:08\001"
        value: "\n\030training/Adam/vhat_7_1:0\022\035training/Adam/vhat_7_1/Assign\032,training/Adam/vhat_7_1/Read/ReadVariableOp:0(\0012\026training/Adam/vhat_7:08\001"
        value: "\n\030training/Adam/vhat_8_1:0\022\035training/Adam/vhat_8_1/Assign\032,training/Adam/vhat_8_1/Read/ReadVariableOp:0(\0012\026training/Adam/vhat_8:08\001"
        value: "\n\030training/Adam/vhat_9_1:0\022\035training/Adam/vhat_9_1/Assign\032,training/Adam/vhat_9_1/Read/ReadVariableOp:0(\0012\026training/Adam/vhat_9:08\001"
        value: "\n\031training/Adam/vhat_10_1:0\022\036training/Adam/vhat_10_1/Assign\032-training/Adam/vhat_10_1/Read/ReadVariableOp:0(\0012\027training/Adam/vhat_10:08\001"
      }
    }
  }
  collection_def {
    key: "variables"
    value {
      bytes_list {
        value: "\n\030embedding_1/embeddings:0\022\035embedding_1/embeddings/Assign\032,embedding_1/embeddings/Read/ReadVariableOp:0(\0012\034embedding_1/random_uniform:08\001"
        value: "\n\021conv1d_1/kernel:0\022\026conv1d_1/kernel/Assign\032%conv1d_1/kernel/Read/ReadVariableOp:0(\0012\031conv1d_1/random_uniform:08\001"
        value: "\n\017conv1d_1/bias:0\022\024conv1d_1/bias/Assign\032#conv1d_1/bias/Read/ReadVariableOp:0(\0012\020conv1d_1/Const:08\001"
        value: "\n\021conv1d_2/kernel:0\022\026conv1d_2/kernel/Assign\032%conv1d_2/kernel/Read/ReadVariableOp:0(\0012\031conv1d_2/random_uniform:08\001"
        value: "\n\017conv1d_2/bias:0\022\024conv1d_2/bias/Assign\032#conv1d_2/bias/Read/ReadVariableOp:0(\0012\020conv1d_2/Const:08\001"
        value: "\n\021conv1d_3/kernel:0\022\026conv1d_3/kernel/Assign\032%conv1d_3/kernel/Read/ReadVariableOp:0(\0012\031conv1d_3/random_uniform:08\001"
        value: "\n\017conv1d_3/bias:0\022\024conv1d_3/bias/Assign\032#conv1d_3/bias/Read/ReadVariableOp:0(\0012\020conv1d_3/Const:08\001"
        value: "\n\021conv1d_4/kernel:0\022\026conv1d_4/kernel/Assign\032%conv1d_4/kernel/Read/ReadVariableOp:0(\0012\031conv1d_4/random_uniform:08\001"
        value: "\n\017conv1d_4/bias:0\022\024conv1d_4/bias/Assign\032#conv1d_4/bias/Read/ReadVariableOp:0(\0012\020conv1d_4/Const:08\001"
        value: "\n\020dense_1/kernel:0\022\025dense_1/kernel/Assign\032$dense_1/kernel/Read/ReadVariableOp:0(\0012\030dense_1/random_uniform:08\001"
        value: "\n\016dense_1/bias:0\022\023dense_1/bias/Assign\032\"dense_1/bias/Read/ReadVariableOp:0(\0012\017dense_1/Const:08\001"
        value: "\n\021Adam/iterations:0\022\026Adam/iterations/Assign\032%Adam/iterations/Read/ReadVariableOp:0(\0012+Adam/iterations/Initializer/initial_value:08\001"
        value: "\n\024Adam/learning_rate:0\022\031Adam/learning_rate/Assign\032(Adam/learning_rate/Read/ReadVariableOp:0(\0012.Adam/learning_rate/Initializer/initial_value:08\001"
        value: "\n\rAdam/beta_1:0\022\022Adam/beta_1/Assign\032!Adam/beta_1/Read/ReadVariableOp:0(\0012\'Adam/beta_1/Initializer/initial_value:08\001"
        value: "\n\rAdam/beta_2:0\022\022Adam/beta_2/Assign\032!Adam/beta_2/Read/ReadVariableOp:0(\0012\'Adam/beta_2/Initializer/initial_value:08\001"
        value: "\n\014Adam/decay:0\022\021Adam/decay/Assign\032 Adam/decay/Read/ReadVariableOp:0(\0012&Adam/decay/Initializer/initial_value:08\001"
        value: "\n\007total:0\022\014total/Assign\032\033total/Read/ReadVariableOp:0(\0012\007Const:08\001"
        value: "\n\007count:0\022\014count/Assign\032\033count/Read/ReadVariableOp:0(\0012\tConst_1:08\001"
        value: "\n\025training/Adam/m_0_1:0\022\032training/Adam/m_0_1/Assign\032)training/Adam/m_0_1/Read/ReadVariableOp:0(\0012\023training/Adam/m_0:08\001"
        value: "\n\025training/Adam/m_1_1:0\022\032training/Adam/m_1_1/Assign\032)training/Adam/m_1_1/Read/ReadVariableOp:0(\0012\023training/Adam/m_1:08\001"
        value: "\n\025training/Adam/m_2_1:0\022\032training/Adam/m_2_1/Assign\032)training/Adam/m_2_1/Read/ReadVariableOp:0(\0012\023training/Adam/m_2:08\001"
        value: "\n\025training/Adam/m_3_1:0\022\032training/Adam/m_3_1/Assign\032)training/Adam/m_3_1/Read/ReadVariableOp:0(\0012\023training/Adam/m_3:08\001"
        value: "\n\025training/Adam/m_4_1:0\022\032training/Adam/m_4_1/Assign\032)training/Adam/m_4_1/Read/ReadVariableOp:0(\0012\023training/Adam/m_4:08\001"
        value: "\n\025training/Adam/m_5_1:0\022\032training/Adam/m_5_1/Assign\032)training/Adam/m_5_1/Read/ReadVariableOp:0(\0012\023training/Adam/m_5:08\001"
        value: "\n\025training/Adam/m_6_1:0\022\032training/Adam/m_6_1/Assign\032)training/Adam/m_6_1/Read/ReadVariableOp:0(\0012\023training/Adam/m_6:08\001"
        value: "\n\025training/Adam/m_7_1:0\022\032training/Adam/m_7_1/Assign\032)training/Adam/m_7_1/Read/ReadVariableOp:0(\0012\023training/Adam/m_7:08\001"
        value: "\n\025training/Adam/m_8_1:0\022\032training/Adam/m_8_1/Assign\032)training/Adam/m_8_1/Read/ReadVariableOp:0(\0012\023training/Adam/m_8:08\001"
        value: "\n\025training/Adam/m_9_1:0\022\032training/Adam/m_9_1/Assign\032)training/Adam/m_9_1/Read/ReadVariableOp:0(\0012\023training/Adam/m_9:08\001"
        value: "\n\026training/Adam/m_10_1:0\022\033training/Adam/m_10_1/Assign\032*training/Adam/m_10_1/Read/ReadVariableOp:0(\0012\024training/Adam/m_10:08\001"
        value: "\n\025training/Adam/v_0_1:0\022\032training/Adam/v_0_1/Assign\032)training/Adam/v_0_1/Read/ReadVariableOp:0(\0012\023training/Adam/v_0:08\001"
        value: "\n\025training/Adam/v_1_1:0\022\032training/Adam/v_1_1/Assign\032)training/Adam/v_1_1/Read/ReadVariableOp:0(\0012\023training/Adam/v_1:08\001"
        value: "\n\025training/Adam/v_2_1:0\022\032training/Adam/v_2_1/Assign\032)training/Adam/v_2_1/Read/ReadVariableOp:0(\0012\023training/Adam/v_2:08\001"
        value: "\n\025training/Adam/v_3_1:0\022\032training/Adam/v_3_1/Assign\032)training/Adam/v_3_1/Read/ReadVariableOp:0(\0012\023training/Adam/v_3:08\001"
        value: "\n\025training/Adam/v_4_1:0\022\032training/Adam/v_4_1/Assign\032)training/Adam/v_4_1/Read/ReadVariableOp:0(\0012\023training/Adam/v_4:08\001"
        value: "\n\025training/Adam/v_5_1:0\022\032training/Adam/v_5_1/Assign\032)training/Adam/v_5_1/Read/ReadVariableOp:0(\0012\023training/Adam/v_5:08\001"
        value: "\n\025training/Adam/v_6_1:0\022\032training/Adam/v_6_1/Assign\032)training/Adam/v_6_1/Read/ReadVariableOp:0(\0012\023training/Adam/v_6:08\001"
        value: "\n\025training/Adam/v_7_1:0\022\032training/Adam/v_7_1/Assign\032)training/Adam/v_7_1/Read/ReadVariableOp:0(\0012\023training/Adam/v_7:08\001"
        value: "\n\025training/Adam/v_8_1:0\022\032training/Adam/v_8_1/Assign\032)training/Adam/v_8_1/Read/ReadVariableOp:0(\0012\023training/Adam/v_8:08\001"
        value: "\n\025training/Adam/v_9_1:0\022\032training/Adam/v_9_1/Assign\032)training/Adam/v_9_1/Read/ReadVariableOp:0(\0012\023training/Adam/v_9:08\001"
        value: "\n\026training/Adam/v_10_1:0\022\033training/Adam/v_10_1/Assign\032*training/Adam/v_10_1/Read/ReadVariableOp:0(\0012\024training/Adam/v_10:08\001"
        value: "\n\030training/Adam/vhat_0_1:0\022\035training/Adam/vhat_0_1/Assign\032,training/Adam/vhat_0_1/Read/ReadVariableOp:0(\0012\026training/Adam/vhat_0:08\001"
        value: "\n\030training/Adam/vhat_1_1:0\022\035training/Adam/vhat_1_1/Assign\032,training/Adam/vhat_1_1/Read/ReadVariableOp:0(\0012\026training/Adam/vhat_1:08\001"
        value: "\n\030training/Adam/vhat_2_1:0\022\035training/Adam/vhat_2_1/Assign\032,training/Adam/vhat_2_1/Read/ReadVariableOp:0(\0012\026training/Adam/vhat_2:08\001"
        value: "\n\030training/Adam/vhat_3_1:0\022\035training/Adam/vhat_3_1/Assign\032,training/Adam/vhat_3_1/Read/ReadVariableOp:0(\0012\026training/Adam/vhat_3:08\001"
        value: "\n\030training/Adam/vhat_4_1:0\022\035training/Adam/vhat_4_1/Assign\032,training/Adam/vhat_4_1/Read/ReadVariableOp:0(\0012\026training/Adam/vhat_4:08\001"
        value: "\n\030training/Adam/vhat_5_1:0\022\035training/Adam/vhat_5_1/Assign\032,training/Adam/vhat_5_1/Read/ReadVariableOp:0(\0012\026training/Adam/vhat_5:08\001"
        value: "\n\030training/Adam/vhat_6_1:0\022\035training/Adam/vhat_6_1/Assign\032,training/Adam/vhat_6_1/Read/ReadVariableOp:0(\0012\026training/Adam/vhat_6:08\001"
        value: "\n\030training/Adam/vhat_7_1:0\022\035training/Adam/vhat_7_1/Assign\032,training/Adam/vhat_7_1/Read/ReadVariableOp:0(\0012\026training/Adam/vhat_7:08\001"
        value: "\n\030training/Adam/vhat_8_1:0\022\035training/Adam/vhat_8_1/Assign\032,training/Adam/vhat_8_1/Read/ReadVariableOp:0(\0012\026training/Adam/vhat_8:08\001"
        value: "\n\030training/Adam/vhat_9_1:0\022\035training/Adam/vhat_9_1/Assign\032,training/Adam/vhat_9_1/Read/ReadVariableOp:0(\0012\026training/Adam/vhat_9:08\001"
        value: "\n\031training/Adam/vhat_10_1:0\022\036training/Adam/vhat_10_1/Assign\032-training/Adam/vhat_10_1/Read/ReadVariableOp:0(\0012\027training/Adam/vhat_10:08\001"
      }
    }
  }
  signature_def {
    key: "prediction_signature"
    value {
      inputs {
        key: "inputX"
        value {
          name: "input_1:0"
          dtype: DT_FLOAT
          tensor_shape {
            dim {
              size: -1
            }
            dim {
              size: 120
            }
          }
        }
      }
      outputs {
        key: "predictClass"
        value {
          name: "dense_1/Sigmoid:0"
          dtype: DT_FLOAT
          tensor_shape {
            dim {
              size: -1
            }
            dim {
              size: 6
            }
          }
        }
      }
      method_name: "tensorflow/serving/predict"
    }
  }
  signature_def {
    key: "serving_default"
    value {
      inputs {
        key: "inputX"
        value {
          name: "input_1:0"
          dtype: DT_FLOAT
          tensor_shape {
            dim {
              size: -1
            }
            dim {
              size: 120
            }
          }
        }
      }
      outputs {
        key: "predictClass"
        value {
          name: "dense_1/Sigmoid:0"
          dtype: DT_FLOAT
          tensor_shape {
            dim {
              size: -1
            }
            dim {
              size: 6
            }
          }
        }
      }
      method_name: "tensorflow/serving/predict"
    }
  }
}
